2025-06-30 08:42:53.734505: I external/org_tensorflow/tensorflow/core/util/port.cc:110] oneDNN custom operations are on. You may see slightly different numerical results due to floating-point round-off errors from different computation orders. To turn them off, set the environment variable `TF_ENABLE_ONEDNN_OPTS=0`.
2025-06-30 08:42:53.779912: E external/org_tensorflow/tensorflow/compiler/xla/stream_executor/cuda/cuda_fft.cc:609] Unable to register cuFFT factory: Attempting to register factory for plugin cuFFT when one has already been registered
2025-06-30 08:42:53.875287: E external/org_tensorflow/tensorflow/compiler/xla/stream_executor/cuda/cuda_blas.cc:1521] Unable to register cuBLAS factory: Attempting to register factory for plugin cuBLAS when one has already been registered
2025-06-30 08:42:53.875321: E external/org_tensorflow/tensorflow/compiler/xla/stream_executor/cuda/cuda_dnn.cc:7704] Unable to register cuDNN factory: Attempting to register factory for plugin cuDNN when one has already been registered
======== BEGIN Original Module =========
module {
  func.func @main(%arg0: !torch.vtensor<[?,4],f32>, %arg1: !torch.vtensor<[?,4],f32>) -> !torch.vtensor<[],f32> {
    %0 = torch.aten.mul.Tensor %arg0, %arg1 : !torch.vtensor<[?,4],f32>, !torch.vtensor<[?,4],f32> -> !torch.vtensor<[?,4],f32>
    %none = torch.constant.none
    %1 = torch.aten.sum %0, %none : !torch.vtensor<[?,4],f32>, !torch.none -> !torch.vtensor<[],f32>
    return %1 : !torch.vtensor<[],f32>
  }
}

======= END Original Module ==========
[DISC] Load Input IR takes: 1.547000e-03 s.
[[ INFO ]] Running ConvertTorchToMhlo
======== After Torch2MHLO =========
module {
  func.func @main(%arg0: tensor<?x4xf32>, %arg1: tensor<?x4xf32>) -> tensor<f32> attributes {tf.entry_function = {input_placements = "cpu,cpu", inputs = "arg0,arg1", output_placements = "cpu", outputs = "out0"}} {
    %0 = mhlo.constant dense<0.000000e+00> : tensor<f32>
    %1 = chlo.broadcast_multiply %arg0, %arg1 : (tensor<?x4xf32>, tensor<?x4xf32>) -> tensor<?x4xf32>
    %2 = mhlo.reduce(%1 init: %0) across dimensions = [0, 1] : (tensor<?x4xf32>, tensor<f32>) -> tensor<f32>
     reducer(%arg2: tensor<f32>, %arg3: tensor<f32>)  {
      %3 = mhlo.add %arg2, %arg3 : tensor<f32>
      mhlo.return %3 : tensor<f32>
    }
    return %2 : tensor<f32>
  }
}

==================================
[zj] Torch2MHLO takes: 1.534000e-02 s.
[[ INFO ]] Running TF2XLA
// -----// IR Dump After SCCP (sccp) //----- //
module {
  func.func @main(%arg0: tensor<?x4xf32>, %arg1: tensor<?x4xf32>) -> tensor<f32> attributes {tf.entry_function = {input_placements = "cpu,cpu", inputs = "arg0,arg1", output_placements = "cpu", outputs = "out0"}} {
    %0 = mhlo.constant dense<0.000000e+00> : tensor<f32>
    %1 = chlo.broadcast_multiply %arg0, %arg1 : (tensor<?x4xf32>, tensor<?x4xf32>) -> tensor<?x4xf32>
    %2 = mhlo.reduce(%1 init: %0) across dimensions = [0, 1] : (tensor<?x4xf32>, tensor<f32>) -> tensor<f32>
     reducer(%arg2: tensor<f32>, %arg3: tensor<f32>)  {
      %3 = mhlo.add %arg2, %arg3 : tensor<f32>
      mhlo.return %3 : tensor<f32>
    }
    return %2 : tensor<f32>
  }
}


// -----// IR Dump After SCCP (sccp) //----- //
module {
  func.func @main(%arg0: tensor<?x4xf32>, %arg1: tensor<?x4xf32>) -> tensor<f32> attributes {tf.entry_function = {input_placements = "cpu,cpu", inputs = "arg0,arg1", output_placements = "cpu", outputs = "out0"}} {
    %0 = mhlo.constant dense<0.000000e+00> : tensor<f32>
    %1 = chlo.broadcast_multiply %arg0, %arg1 : (tensor<?x4xf32>, tensor<?x4xf32>) -> tensor<?x4xf32>
    %2 = mhlo.reduce(%1 init: %0) across dimensions = [0, 1] : (tensor<?x4xf32>, tensor<f32>) -> tensor<f32>
     reducer(%arg2: tensor<f32>, %arg3: tensor<f32>)  {
      %3 = mhlo.add %arg2, %arg3 : tensor<f32>
      mhlo.return %3 : tensor<f32>
    }
    return %2 : tensor<f32>
  }
}


// -----// IR Dump After LegalizeTF (xla-legalize-tf) //----- //
module {
  func.func @main(%arg0: tensor<?x4xf32>, %arg1: tensor<?x4xf32>) -> tensor<f32> attributes {tf.entry_function = {input_placements = "cpu,cpu", inputs = "arg0,arg1", output_placements = "cpu", outputs = "out0"}} {
    %0 = mhlo.constant dense<0.000000e+00> : tensor<f32>
    %1 = shape.shape_of %arg0 : tensor<?x4xf32> -> tensor<2xindex>
    %2 = shape.shape_of %arg1 : tensor<?x4xf32> -> tensor<2xindex>
    %3 = shape.cstr_broadcastable %1, %2 : tensor<2xindex>, tensor<2xindex>
    %4 = shape.assuming %3 -> (tensor<?x4xf32>) {
      %6 = shape.shape_of %arg0 : tensor<?x4xf32> -> tensor<2xindex>
      %7 = shape.shape_of %arg1 : tensor<?x4xf32> -> tensor<2xindex>
      %8 = shape.broadcast %6, %7 : tensor<2xindex>, tensor<2xindex> -> tensor<2xindex>
      %9 = "mhlo.dynamic_broadcast_in_dim"(%arg0, %8) {broadcast_dimensions = dense<[0, 1]> : tensor<2xi64>} : (tensor<?x4xf32>, tensor<2xindex>) -> tensor<?x4xf32>
      %10 = "mhlo.dynamic_broadcast_in_dim"(%arg1, %8) {broadcast_dimensions = dense<[0, 1]> : tensor<2xi64>} : (tensor<?x4xf32>, tensor<2xindex>) -> tensor<?x4xf32>
      %11 = mhlo.multiply %9, %10 : tensor<?x4xf32>
      shape.assuming_yield %11 : tensor<?x4xf32>
    }
    %5 = mhlo.reduce(%4 init: %0) across dimensions = [0, 1] : (tensor<?x4xf32>, tensor<f32>) -> tensor<f32>
     reducer(%arg2: tensor<f32>, %arg3: tensor<f32>)  {
      %6 = mhlo.add %arg2, %arg3 : tensor<f32>
      mhlo.return %6 : tensor<f32>
    }
    return %5 : tensor<f32>
  }
}


===-------------------------------------------------------------------------===
                         ... Execution time report ...
===-------------------------------------------------------------------------===
  Total Execution Time: 0.0063 seconds

  ----Wall Time----  ----Name----
    0.0001 (  1.4%)  ReviseArgumentsForStaticRankPass
    0.0000 (  0.7%)  FunctionalControlFlowToRegionsPass
    0.0004 (  6.7%)  Inliner
    0.0000 (  0.2%)    (A) CallGraph
    0.0001 (  1.9%)  'func.func' Pipeline
    0.0001 (  1.9%)    Canonicalizer
    0.0002 (  2.6%)  'func.func' Pipeline
    0.0000 (  0.5%)    DropWhileShapeInvariantPass
    0.0000 (  0.5%)    ReplicateTensorListInitOpsPass
    0.0001 (  1.5%)    Canonicalizer
    0.0004 (  6.3%)  SCCP
    0.0001 (  1.0%)  GuaranteeAllFuncsOneUsePass
    0.0000 (  0.0%)    (A) CallGraph
    0.0000 (  0.8%)  TensorFlowShapeInferencePass
    0.0003 (  5.3%)  SCCP
    0.0000 (  0.7%)  TensorListOpsDecompositionPass
    0.0000 (  0.6%)  StackOpsDecompositionPass
    0.0000 (  0.6%)  TensorArrayOpsDecompositionPass
    0.0001 (  2.0%)  'func.func' Pipeline
    0.0001 (  2.0%)    DecomposeResourceOpsPass
    0.0001 (  0.8%)  PromoteResourcesToArgsPass
    0.0000 (  0.7%)  SymbolDCE
    0.0000 (  0.6%)  'func.func' Pipeline
    0.0000 (  0.6%)    SinkConstantsToControlFlowPass
    0.0000 (  0.7%)  TensorFlowShapeInferencePass
    0.0002 (  3.5%)  StablehloLegalizeToHloPass
    0.0001 (  2.3%)  'func.func' Pipeline
    0.0001 (  1.4%)    DiscLowerTfPass
    0.0001 (  0.9%)    LowerQuantizedPass
    0.0001 (  0.9%)  LegalizeTfTypesPass
    0.0016 ( 25.2%)  LegalizeTF
    0.0002 (  3.5%)  'func.func' Pipeline
    0.0001 (  2.3%)    DiscLowerTfPass
    0.0001 (  1.1%)    InfeedOpsXlaAdjustLayout
    0.0001 (  1.8%)  LegalizeTFCollective
    0.0002 (  2.5%)  'func.func' Pipeline
    0.0002 (  2.5%)    Canonicalizer
    0.0001 (  1.3%)  TensorFlowShapeInferencePass
    0.0006 (  9.5%)  LegalizeTF
    0.0001 (  1.3%)  LegalizeTFCommunicationPass
    0.0002 (  3.0%)  'func.func' Pipeline
    0.0001 (  1.8%)    DiscDynamicSliceConverterPass
    0.0001 (  1.1%)    SinkConstantsToControlFlowPass
    0.0007 ( 11.1%)  Rest
    0.0063 (100.0%)  Total
======== BEGIN After TF2HLO =========
module {
  func.func @main(%arg0: tensor<?x4xf32>, %arg1: tensor<?x4xf32>) -> tensor<f32> attributes {tf.entry_function = {input_placements = "cpu,cpu", inputs = "arg0,arg1", output_placements = "cpu", outputs = "out0"}} {
    %0 = mhlo.constant dense<0.000000e+00> : tensor<f32>
    %1 = shape.shape_of %arg0 : tensor<?x4xf32> -> tensor<2xindex>
    %2 = shape.shape_of %arg1 : tensor<?x4xf32> -> tensor<2xindex>
    %3 = shape.cstr_broadcastable %1, %2 : tensor<2xindex>, tensor<2xindex>
    %4 = shape.assuming %3 -> (tensor<?x4xf32>) {
      %6 = shape.shape_of %arg0 : tensor<?x4xf32> -> tensor<2xindex>
      %7 = shape.shape_of %arg1 : tensor<?x4xf32> -> tensor<2xindex>
      %8 = shape.broadcast %6, %7 : tensor<2xindex>, tensor<2xindex> -> tensor<2xindex>
      %9 = "mhlo.dynamic_broadcast_in_dim"(%arg0, %8) {broadcast_dimensions = dense<[0, 1]> : tensor<2xi64>} : (tensor<?x4xf32>, tensor<2xindex>) -> tensor<?x4xf32>
      %10 = "mhlo.dynamic_broadcast_in_dim"(%arg1, %8) {broadcast_dimensions = dense<[0, 1]> : tensor<2xi64>} : (tensor<?x4xf32>, tensor<2xindex>) -> tensor<?x4xf32>
      %11 = mhlo.multiply %9, %10 : tensor<?x4xf32>
      shape.assuming_yield %11 : tensor<?x4xf32>
    }
    %5 = mhlo.reduce(%4 init: %0) across dimensions = [0, 1] : (tensor<?x4xf32>, tensor<f32>) -> tensor<f32>
     reducer(%arg2: tensor<f32>, %arg3: tensor<f32>)  {
      %6 = mhlo.add %arg2, %arg3 : tensor<f32>
      mhlo.return %6 : tensor<f32>
    }
    return %5 : tensor<f32>
  }
}

======= END After TF2HLO ==========
[DISC] tf2hlo takes: 7.133000e-03 s.
// -----// IR Dump After RemoveShapeConstraintsPass (disc-remove-shape-constraint) //----- //
func.func @main(%arg0: tensor<?x4xf32>, %arg1: tensor<?x4xf32>) -> tensor<f32> attributes {tf.entry_function = {input_placements = "cpu,cpu", inputs = "arg0,arg1", output_placements = "cpu", outputs = "out0"}} {
  %0 = shape.const_witness true
  %1 = mhlo.constant dense<0.000000e+00> : tensor<f32>
  %2 = shape.assuming %0 -> (tensor<?x4xf32>) {
    %4 = shape.shape_of %arg0 : tensor<?x4xf32> -> tensor<2xindex>
    %5 = shape.shape_of %arg1 : tensor<?x4xf32> -> tensor<2xindex>
    %6 = shape.broadcast %4, %5 : tensor<2xindex>, tensor<2xindex> -> tensor<2xindex>
    %7 = "mhlo.dynamic_broadcast_in_dim"(%arg0, %6) {broadcast_dimensions = dense<[0, 1]> : tensor<2xi64>} : (tensor<?x4xf32>, tensor<2xindex>) -> tensor<?x4xf32>
    %8 = "mhlo.dynamic_broadcast_in_dim"(%arg1, %6) {broadcast_dimensions = dense<[0, 1]> : tensor<2xi64>} : (tensor<?x4xf32>, tensor<2xindex>) -> tensor<?x4xf32>
    %9 = mhlo.multiply %7, %8 : tensor<?x4xf32>
    shape.assuming_yield %9 : tensor<?x4xf32>
  }
  %3 = mhlo.reduce(%2 init: %1) across dimensions = [0, 1] : (tensor<?x4xf32>, tensor<f32>) -> tensor<f32>
   reducer(%arg2: tensor<f32>, %arg3: tensor<f32>)  {
    %4 = mhlo.add %arg2, %arg3 : tensor<f32>
    mhlo.return %4 : tensor<f32>
  }
  return %3 : tensor<f32>
}

// -----// IR Dump After Canonicalizer (canonicalize) //----- //
func.func @main(%arg0: tensor<?x4xf32>, %arg1: tensor<?x4xf32>) -> tensor<f32> attributes {tf.entry_function = {input_placements = "cpu,cpu", inputs = "arg0,arg1", output_placements = "cpu", outputs = "out0"}} {
  %0 = mhlo.constant dense<0.000000e+00> : tensor<f32>
  %1 = shape.shape_of %arg0 : tensor<?x4xf32> -> tensor<2xindex>
  %2 = shape.shape_of %arg1 : tensor<?x4xf32> -> tensor<2xindex>
  %3 = shape.broadcast %1, %2 : tensor<2xindex>, tensor<2xindex> -> tensor<2xindex>
  %4 = "mhlo.dynamic_broadcast_in_dim"(%arg0, %3) {broadcast_dimensions = dense<[0, 1]> : tensor<2xi64>} : (tensor<?x4xf32>, tensor<2xindex>) -> tensor<?x4xf32>
  %5 = "mhlo.dynamic_broadcast_in_dim"(%arg1, %3) {broadcast_dimensions = dense<[0, 1]> : tensor<2xi64>} : (tensor<?x4xf32>, tensor<2xindex>) -> tensor<?x4xf32>
  %6 = mhlo.multiply %4, %5 : tensor<?x4xf32>
  %7 = mhlo.reduce(%6 init: %0) across dimensions = [0, 1] : (tensor<?x4xf32>, tensor<f32>) -> tensor<f32>
   reducer(%arg2: tensor<f32>, %arg3: tensor<f32>)  {
    %8 = mhlo.add %arg2, %arg3 : tensor<f32>
    mhlo.return %8 : tensor<f32>
  }
  return %7 : tensor<f32>
}

// -----// IR Dump After ConvertShapeToStandardPass (disc-convert-shape-to-std) //----- //
func.func @main(%arg0: tensor<?x4xf32>, %arg1: tensor<?x4xf32>) -> tensor<f32> attributes {tf.entry_function = {input_placements = "cpu,cpu", inputs = "arg0,arg1", output_placements = "cpu", outputs = "out0"}} {
  %0 = mhlo.constant dense<0.000000e+00> : tensor<f32>
  %c0 = arith.constant 0 : index
  %dim = tensor.dim %arg0, %c0 : tensor<?x4xf32>
  %c4 = arith.constant 4 : index
  %from_elements = tensor.from_elements %dim, %c4 : tensor<2xindex>
  %c0_0 = arith.constant 0 : index
  %dim_1 = tensor.dim %arg1, %c0_0 : tensor<?x4xf32>
  %c4_2 = arith.constant 4 : index
  %from_elements_3 = tensor.from_elements %dim_1, %c4_2 : tensor<2xindex>
  %c0_4 = arith.constant 0 : index
  %c1 = arith.constant 1 : index
  %c0_5 = arith.constant 0 : index
  %extracted = tensor.extract %from_elements[%c0_5] : tensor<2xindex>
  %1 = arith.cmpi eq, %extracted, %c1 : index
  %2 = arith.select %1, %c1, %extracted : index
  %c0_6 = arith.constant 0 : index
  %extracted_7 = tensor.extract %from_elements_3[%c0_6] : tensor<2xindex>
  %3 = arith.cmpi eq, %extracted_7, %c1 : index
  %4 = arith.select %3, %2, %extracted_7 : index
  %c1_8 = arith.constant 1 : index
  %c1_9 = arith.constant 1 : index
  %extracted_10 = tensor.extract %from_elements[%c1_9] : tensor<2xindex>
  %5 = arith.cmpi eq, %extracted_10, %c1_8 : index
  %6 = arith.select %5, %c1_8, %extracted_10 : index
  %c1_11 = arith.constant 1 : index
  %extracted_12 = tensor.extract %from_elements_3[%c1_11] : tensor<2xindex>
  %7 = arith.cmpi eq, %extracted_12, %c1_8 : index
  %8 = arith.select %7, %6, %extracted_12 : index
  %from_elements_13 = tensor.from_elements %4, %8 : tensor<2xindex>
  %9 = "mhlo.dynamic_broadcast_in_dim"(%arg0, %from_elements_13) {broadcast_dimensions = dense<[0, 1]> : tensor<2xi64>} : (tensor<?x4xf32>, tensor<2xindex>) -> tensor<?x4xf32>
  %10 = "mhlo.dynamic_broadcast_in_dim"(%arg1, %from_elements_13) {broadcast_dimensions = dense<[0, 1]> : tensor<2xi64>} : (tensor<?x4xf32>, tensor<2xindex>) -> tensor<?x4xf32>
  %11 = mhlo.multiply %9, %10 : tensor<?x4xf32>
  %12 = mhlo.reduce(%11 init: %0) across dimensions = [0, 1] : (tensor<?x4xf32>, tensor<f32>) -> tensor<f32>
   reducer(%arg2: tensor<f32>, %arg3: tensor<f32>)  {
    %13 = mhlo.add %arg2, %arg3 : tensor<f32>
    mhlo.return %13 : tensor<f32>
  }
  return %12 : tensor<f32>
}

SymbolicDimMgr::save walkRankedTensorValue takes: 7 us
SymbolicDimMgr::save update attributes takes: 2 us
SymbolicDimMgr::updateProductEqualityMap simplifySymbolicDimProductPair takes: 0 us
productSet.size() = 0
SymbolicDimMgr::updateProductEqualityMap propagate graph takes: 3 us
SymbolicDimMgr::updateProductEqualityMap remove multiply takes: 0 us
SymbolicDimMgr::updateProductEqualityMap build toRemove  takes: 0 us
SymbolicDimMgr::updateProductEqualityMap apply toRemove  takes: 0 us
SymbolicDimMgr::save updateProductEqualityMap takes: 22 us
SymbolicDimMgr::save updateFunctionType takes: 1 us
SymbolicDimMgr::save collect symbolicDim ops takes: 7 us
SymbolicDimMgr::save remove symbolicDim ops takes: 1 us
SymbolicDimMgr::save remove unused production takes: 0 us
SymbolicDimMgr::save remove unused production #2 takes: 0 us
SymbolicDimMgr::save canonicalize the name takes: 8 us
SymbolicDimMgr::save replace the name takes: 7 us
SymbolicDimMgr::save updateFunctionType takes: 0 us
// -----// IR Dump After DiscShapeOptimizationPass (disc-shape-optimization) //----- //
module {
  func.func @main(%arg0: tensor<?x4xf32, [@S0, @C4]>, %arg1: tensor<?x4xf32, [@S1, @C4]>) -> tensor<f32> attributes {tf.entry_function = {input_placements = "cpu,cpu", inputs = "arg0,arg1", output_placements = "cpu", outputs = "out0"}} {
    %c4 = arith.constant 4 : index
    %c0 = arith.constant 0 : index
    %0 = mhlo.constant dense<0.000000e+00> : tensor<f32>
    %c1 = arith.constant 1 : index
    %dim = tensor.dim %arg0, %c0 : tensor<?x4xf32, [@S0, @C4]>
    %dim_0 = tensor.dim %arg1, %c0 : tensor<?x4xf32, [@S1, @C4]>
    %1 = arith.cmpi eq, %dim_0, %c1 : index
    %2 = arith.select %1, %dim, %dim_0 : index
    %from_elements = tensor.from_elements %2, %c4 : tensor<2xindex>
    %3 = "mhlo.dynamic_broadcast_in_dim"(%arg0, %from_elements) {broadcast_dimensions = dense<[0, 1]> : tensor<2xi64>} : (tensor<?x4xf32, [@S0, @C4]>, tensor<2xindex>) -> tensor<?x4xf32, [@S2, @C4]>
    %4 = "mhlo.dynamic_broadcast_in_dim"(%arg1, %from_elements) {broadcast_dimensions = dense<[0, 1]> : tensor<2xi64>} : (tensor<?x4xf32, [@S1, @C4]>, tensor<2xindex>) -> tensor<?x4xf32, [@S2, @C4]>
    %5 = mhlo.multiply %3, %4 : tensor<?x4xf32, [@S2, @C4]>
    %6 = mhlo.reduce(%5 init: %0) across dimensions = [0, 1] : (tensor<?x4xf32, [@S2, @C4]>, tensor<f32>) -> tensor<f32>
     reducer(%arg2: tensor<f32>, %arg3: tensor<f32>)  {
      %7 = mhlo.add %arg2, %arg3 : tensor<f32>
      mhlo.return %7 : tensor<f32>
    }
    return %6 : tensor<f32>
  }
  "disc_shape.SymbolicDim"() {knownNegativeOne = false, knownNonNegative = true, knownNonSizeOne = false, knownNonSizeZero = false, sym_name = "S0", value = -9223372036854775808 : i64} : () -> ()
  "disc_shape.SymbolicDim"() {knownNegativeOne = false, knownNonNegative = true, knownNonSizeOne = true, knownNonSizeZero = true, sym_name = "C4", value = 4 : i64} : () -> ()
  "disc_shape.SymbolicDim"() {knownNegativeOne = false, knownNonNegative = true, knownNonSizeOne = false, knownNonSizeZero = false, sym_name = "S1", value = -9223372036854775808 : i64} : () -> ()
  "disc_shape.SymbolicDim"() {knownNegativeOne = false, knownNonNegative = true, knownNonSizeOne = false, knownNonSizeZero = false, sym_name = "S2", value = -9223372036854775808 : i64} : () -> ()
  func.func @shape_constraint_graph() {
    return
  }
}


SymbolicDimMgr::save walkRankedTensorValue takes: 7 us
SymbolicDimMgr::save update attributes takes: 1 us
SymbolicDimMgr::updateProductEqualityMap simplifySymbolicDimProductPair takes: 0 us
productSet.size() = 0
SymbolicDimMgr::updateProductEqualityMap propagate graph takes: 3 us
SymbolicDimMgr::updateProductEqualityMap remove multiply takes: 0 us
SymbolicDimMgr::updateProductEqualityMap build toRemove  takes: 0 us
SymbolicDimMgr::updateProductEqualityMap apply toRemove  takes: 0 us
SymbolicDimMgr::save updateProductEqualityMap takes: 22 us
SymbolicDimMgr::save updateFunctionType takes: 1 us
SymbolicDimMgr::save collect symbolicDim ops takes: 6 us
SymbolicDimMgr::save remove symbolicDim ops takes: 1 us
SymbolicDimMgr::save remove unused production takes: 0 us
SymbolicDimMgr::save remove unused production #2 takes: 0 us
SymbolicDimMgr::save canonicalize the name takes: 6 us
SymbolicDimMgr::save replace the name takes: 6 us
SymbolicDimMgr::save updateFunctionType takes: 0 us
// -----// IR Dump After DiscShapeOptimizationPass (disc-shape-optimization) //----- //
module {
  func.func @main(%arg0: tensor<?x4xf32, [@S0, @C4]>, %arg1: tensor<?x4xf32, [@S1, @C4]>) -> tensor<f32> attributes {tf.entry_function = {input_placements = "cpu,cpu", inputs = "arg0,arg1", output_placements = "cpu", outputs = "out0"}} {
    %c4 = arith.constant 4 : index
    %c0 = arith.constant 0 : index
    %0 = mhlo.constant dense<0.000000e+00> : tensor<f32>
    %c1 = arith.constant 1 : index
    %dim = tensor.dim %arg0, %c0 : tensor<?x4xf32, [@S0, @C4]>
    %dim_0 = tensor.dim %arg1, %c0 : tensor<?x4xf32, [@S1, @C4]>
    %1 = arith.cmpi eq, %dim_0, %c1 : index
    %2 = arith.select %1, %dim, %dim_0 : index
    %from_elements = tensor.from_elements %2, %c4 : tensor<2xindex>
    %3 = "mhlo.dynamic_broadcast_in_dim"(%arg0, %from_elements) {broadcast_dimensions = dense<[0, 1]> : tensor<2xi64>} : (tensor<?x4xf32, [@S0, @C4]>, tensor<2xindex>) -> tensor<?x4xf32, [@S2, @C4]>
    %4 = "mhlo.dynamic_broadcast_in_dim"(%arg1, %from_elements) {broadcast_dimensions = dense<[0, 1]> : tensor<2xi64>} : (tensor<?x4xf32, [@S1, @C4]>, tensor<2xindex>) -> tensor<?x4xf32, [@S2, @C4]>
    %5 = mhlo.multiply %3, %4 : tensor<?x4xf32, [@S2, @C4]>
    %6 = mhlo.reduce(%5 init: %0) across dimensions = [0, 1] : (tensor<?x4xf32, [@S2, @C4]>, tensor<f32>) -> tensor<f32>
     reducer(%arg2: tensor<f32>, %arg3: tensor<f32>)  {
      %7 = mhlo.add %arg2, %arg3 : tensor<f32>
      mhlo.return %7 : tensor<f32>
    }
    return %6 : tensor<f32>
  }
  "disc_shape.SymbolicDim"() {knownNegativeOne = false, knownNonNegative = true, knownNonSizeOne = false, knownNonSizeZero = false, sym_name = "S0", value = -9223372036854775808 : i64} : () -> ()
  "disc_shape.SymbolicDim"() {knownNegativeOne = false, knownNonNegative = true, knownNonSizeOne = true, knownNonSizeZero = true, sym_name = "C4", value = 4 : i64} : () -> ()
  "disc_shape.SymbolicDim"() {knownNegativeOne = false, knownNonNegative = true, knownNonSizeOne = false, knownNonSizeZero = false, sym_name = "S1", value = -9223372036854775808 : i64} : () -> ()
  "disc_shape.SymbolicDim"() {knownNegativeOne = false, knownNonNegative = true, knownNonSizeOne = false, knownNonSizeZero = false, sym_name = "S2", value = -9223372036854775808 : i64} : () -> ()
  func.func @shape_constraint_graph() {
    return
  }
}


SymbolicDimMgr::save walkRankedTensorValue takes: 7 us
SymbolicDimMgr::save update attributes takes: 1 us
SymbolicDimMgr::updateProductEqualityMap simplifySymbolicDimProductPair takes: 0 us
productSet.size() = 0
SymbolicDimMgr::updateProductEqualityMap propagate graph takes: 3 us
SymbolicDimMgr::updateProductEqualityMap remove multiply takes: 0 us
SymbolicDimMgr::updateProductEqualityMap build toRemove  takes: 0 us
SymbolicDimMgr::updateProductEqualityMap apply toRemove  takes: 0 us
SymbolicDimMgr::save updateProductEqualityMap takes: 22 us
SymbolicDimMgr::save updateFunctionType takes: 1 us
SymbolicDimMgr::save collect symbolicDim ops takes: 6 us
SymbolicDimMgr::save remove symbolicDim ops takes: 1 us
SymbolicDimMgr::save remove unused production takes: 0 us
SymbolicDimMgr::save remove unused production #2 takes: 0 us
SymbolicDimMgr::save canonicalize the name takes: 6 us
SymbolicDimMgr::save replace the name takes: 5 us
SymbolicDimMgr::save updateFunctionType takes: 0 us
// -----// IR Dump After DiscShapeOptimizationPass (disc-shape-optimization) //----- //
module {
  func.func @main(%arg0: tensor<?x4xf32, [@S0, @C4]>, %arg1: tensor<?x4xf32, [@S1, @C4]>) -> tensor<f32> attributes {tf.entry_function = {input_placements = "cpu,cpu", inputs = "arg0,arg1", output_placements = "cpu", outputs = "out0"}} {
    %c4 = arith.constant 4 : index
    %c0 = arith.constant 0 : index
    %0 = mhlo.constant dense<0.000000e+00> : tensor<f32>
    %c1 = arith.constant 1 : index
    %dim = tensor.dim %arg0, %c0 : tensor<?x4xf32, [@S0, @C4]>
    %dim_0 = tensor.dim %arg1, %c0 : tensor<?x4xf32, [@S1, @C4]>
    %1 = arith.cmpi eq, %dim_0, %c1 : index
    %2 = arith.select %1, %dim, %dim_0 : index
    %from_elements = tensor.from_elements %2, %c4 : tensor<2xindex>
    %3 = "mhlo.dynamic_broadcast_in_dim"(%arg0, %from_elements) {broadcast_dimensions = dense<[0, 1]> : tensor<2xi64>} : (tensor<?x4xf32, [@S0, @C4]>, tensor<2xindex>) -> tensor<?x4xf32, [@S2, @C4]>
    %4 = "mhlo.dynamic_broadcast_in_dim"(%arg1, %from_elements) {broadcast_dimensions = dense<[0, 1]> : tensor<2xi64>} : (tensor<?x4xf32, [@S1, @C4]>, tensor<2xindex>) -> tensor<?x4xf32, [@S2, @C4]>
    %5 = mhlo.multiply %3, %4 : tensor<?x4xf32, [@S2, @C4]>
    %6 = mhlo.reduce(%5 init: %0) across dimensions = [0, 1] : (tensor<?x4xf32, [@S2, @C4]>, tensor<f32>) -> tensor<f32>
     reducer(%arg2: tensor<f32>, %arg3: tensor<f32>)  {
      %7 = mhlo.add %arg2, %arg3 : tensor<f32>
      mhlo.return %7 : tensor<f32>
    }
    return %6 : tensor<f32>
  }
  "disc_shape.SymbolicDim"() {knownNegativeOne = false, knownNonNegative = true, knownNonSizeOne = false, knownNonSizeZero = false, sym_name = "S0", value = -9223372036854775808 : i64} : () -> ()
  "disc_shape.SymbolicDim"() {knownNegativeOne = false, knownNonNegative = true, knownNonSizeOne = true, knownNonSizeZero = true, sym_name = "C4", value = 4 : i64} : () -> ()
  "disc_shape.SymbolicDim"() {knownNegativeOne = false, knownNonNegative = true, knownNonSizeOne = false, knownNonSizeZero = false, sym_name = "S1", value = -9223372036854775808 : i64} : () -> ()
  "disc_shape.SymbolicDim"() {knownNegativeOne = false, knownNonNegative = true, knownNonSizeOne = false, knownNonSizeZero = false, sym_name = "S2", value = -9223372036854775808 : i64} : () -> ()
  func.func @shape_constraint_graph() {
    return
  }
}


// -----// IR Dump After HloCanonicalizeReductionPass (hlo-canonicalize-reduction) //----- //
func.func @main(%arg0: tensor<?x4xf32, [@S0, @C4]>, %arg1: tensor<?x4xf32, [@S1, @C4]>) -> tensor<f32> attributes {tf.entry_function = {input_placements = "cpu,cpu", inputs = "arg0,arg1", output_placements = "cpu", outputs = "out0"}} {
  %c4 = arith.constant 4 : index
  %c0 = arith.constant 0 : index
  %0 = mhlo.constant dense<0.000000e+00> : tensor<f32>
  %c1 = arith.constant 1 : index
  %dim = tensor.dim %arg0, %c0 : tensor<?x4xf32, [@S0, @C4]>
  %dim_0 = tensor.dim %arg1, %c0 : tensor<?x4xf32, [@S1, @C4]>
  %1 = arith.cmpi eq, %dim_0, %c1 : index
  %2 = arith.select %1, %dim, %dim_0 : index
  %from_elements = tensor.from_elements %2, %c4 : tensor<2xindex>
  %3 = "mhlo.dynamic_broadcast_in_dim"(%arg0, %from_elements) {broadcast_dimensions = dense<[0, 1]> : tensor<2xi64>} : (tensor<?x4xf32, [@S0, @C4]>, tensor<2xindex>) -> tensor<?x4xf32, [@S2, @C4]>
  %4 = "mhlo.dynamic_broadcast_in_dim"(%arg1, %from_elements) {broadcast_dimensions = dense<[0, 1]> : tensor<2xi64>} : (tensor<?x4xf32, [@S1, @C4]>, tensor<2xindex>) -> tensor<?x4xf32, [@S2, @C4]>
  %5 = mhlo.multiply %3, %4 : tensor<?x4xf32, [@S2, @C4]>
  %c1_i32 = arith.constant 1 : i32
  %c0_1 = arith.constant 0 : index
  %dim_2 = tensor.dim %5, %c0_1 : tensor<?x4xf32, [@S2, @C4]>
  %6 = arith.index_cast %dim_2 : index to i32
  %7 = arith.muli %c1_i32, %6 : i32
  %c1_3 = arith.constant 1 : index
  %dim_4 = tensor.dim %5, %c1_3 : tensor<?x4xf32, [@S2, @C4]>
  %8 = arith.index_cast %dim_4 : index to i32
  %9 = arith.muli %7, %8 : i32
  %from_elements_5 = tensor.from_elements %9, %c1_i32 : tensor<2xi32>
  %10 = mhlo.dynamic_reshape %5, %from_elements_5 : (tensor<?x4xf32, [@S2, @C4]>, tensor<2xi32>) -> tensor<?x?xf32>
  %11 = mhlo.reduce(%10 init: %0) across dimensions = [0] : (tensor<?x?xf32>, tensor<f32>) -> tensor<?xf32>
   reducer(%arg2: tensor<f32>, %arg3: tensor<f32>)  {
    %13 = mhlo.add %arg2, %arg3 : tensor<f32>
    mhlo.return %13 : tensor<f32>
  }
  %12 = mhlo.reshape %11 : (tensor<?xf32>) -> tensor<f32>
  return %12 : tensor<f32>
}

SymbolicDimMgr::save walkRankedTensorValue takes: 8 us
SymbolicDimMgr::save update attributes takes: 2 us
SymbolicDimMgr::updateProductEqualityMap simplifySymbolicDimProductPair takes: 8 us
productSet.size() = 2
SymbolicDimMgr::updateProductEqualityMap propagate graph takes: 5 us
SymbolicDimMgr::updateProductEqualityMap remove multiply takes: 11 us
SymbolicDimMgr::updateProductEqualityMap build toRemove  takes: 0 us
SymbolicDimMgr::updateProductEqualityMap apply toRemove  takes: 0 us
SymbolicDimMgr::save updateProductEqualityMap takes: 45 us
SymbolicDimMgr::save updateFunctionType takes: 1 us
SymbolicDimMgr::save collect symbolicDim ops takes: 8 us
SymbolicDimMgr::save remove symbolicDim ops takes: 1 us
SymbolicDimMgr::save remove unused production takes: 0 us
SymbolicDimMgr::save remove unused production #2 takes: 1 us
SymbolicDimMgr::save canonicalize the name takes: 9 us
SymbolicDimMgr::save replace the name takes: 7 us
SymbolicDimMgr::save updateFunctionType takes: 0 us
SymbolicDimMgr::save walkRankedTensorValue takes: 8 us
SymbolicDimMgr::save update attributes takes: 2 us
SymbolicDimMgr::updateProductEqualityMap simplifySymbolicDimProductPair takes: 7 us
productSet.size() = 2
SymbolicDimMgr::updateProductEqualityMap propagate graph takes: 4 us
SymbolicDimMgr::updateProductEqualityMap remove multiply takes: 10 us
SymbolicDimMgr::updateProductEqualityMap build toRemove  takes: 0 us
SymbolicDimMgr::updateProductEqualityMap apply toRemove  takes: 0 us
SymbolicDimMgr::save updateProductEqualityMap takes: 42 us
SymbolicDimMgr::save updateFunctionType takes: 1 us
SymbolicDimMgr::save collect symbolicDim ops takes: 8 us
SymbolicDimMgr::save remove symbolicDim ops takes: 1 us
SymbolicDimMgr::save remove unused production takes: 0 us
SymbolicDimMgr::save remove unused production #2 takes: 0 us
SymbolicDimMgr::save canonicalize the name takes: 8 us
SymbolicDimMgr::save replace the name takes: 7 us
SymbolicDimMgr::save updateFunctionType takes: 1 us
// -----// IR Dump After DiscShapeOptimizationPass (disc-shape-optimization) //----- //
module {
  func.func @main(%arg0: tensor<?x4xf32, [@S0, @C4]>, %arg1: tensor<?x4xf32, [@S1, @C4]>) -> tensor<f32> attributes {tf.entry_function = {input_placements = "cpu,cpu", inputs = "arg0,arg1", output_placements = "cpu", outputs = "out0"}} {
    %c1 = arith.constant 1 : index
    %c4 = arith.constant 4 : index
    %c0 = arith.constant 0 : index
    %c4_i32 = arith.constant 4 : i32
    %c1_i32 = arith.constant 1 : i32
    %0 = mhlo.constant dense<0.000000e+00> : tensor<f32>
    %dim = tensor.dim %arg0, %c0 : tensor<?x4xf32, [@S0, @C4]>
    %dim_0 = tensor.dim %arg1, %c0 : tensor<?x4xf32, [@S1, @C4]>
    %1 = arith.cmpi eq, %dim_0, %c1 : index
    %2 = arith.select %1, %dim, %dim_0 : index
    %from_elements = tensor.from_elements %2, %c4 : tensor<2xindex>
    %3 = "mhlo.dynamic_broadcast_in_dim"(%arg0, %from_elements) {broadcast_dimensions = dense<[0, 1]> : tensor<2xi64>} : (tensor<?x4xf32, [@S0, @C4]>, tensor<2xindex>) -> tensor<?x4xf32, [@S2, @C4]>
    %4 = "mhlo.dynamic_broadcast_in_dim"(%arg1, %from_elements) {broadcast_dimensions = dense<[0, 1]> : tensor<2xi64>} : (tensor<?x4xf32, [@S1, @C4]>, tensor<2xindex>) -> tensor<?x4xf32, [@S2, @C4]>
    %5 = mhlo.multiply %3, %4 : tensor<?x4xf32, [@S2, @C4]>
    %6 = arith.index_cast %2 : index to i32
    %7 = arith.muli %6, %c4_i32 : i32
    %from_elements_1 = tensor.from_elements %7, %c1_i32 : tensor<2xi32>
    %8 = mhlo.dynamic_reshape %5, %from_elements_1 : (tensor<?x4xf32, [@S2, @C4]>, tensor<2xi32>) -> tensor<?x1xf32, [@S3, @C1]>
    %9 = mhlo.reduce(%8 init: %0) across dimensions = [0] : (tensor<?x1xf32, [@S3, @C1]>, tensor<f32>) -> tensor<1xf32>
     reducer(%arg2: tensor<f32>, %arg3: tensor<f32>)  {
      %11 = mhlo.add %arg2, %arg3 : tensor<f32>
      mhlo.return %11 : tensor<f32>
    }
    %10 = mhlo.reshape %9 : (tensor<1xf32>) -> tensor<f32>
    return %10 : tensor<f32>
  }
  "disc_shape.SymbolicDim"() {knownNegativeOne = false, knownNonNegative = true, knownNonSizeOne = false, knownNonSizeZero = false, sym_name = "S0", value = -9223372036854775808 : i64} : () -> ()
  "disc_shape.SymbolicDim"() {knownNegativeOne = false, knownNonNegative = true, knownNonSizeOne = true, knownNonSizeZero = true, sym_name = "C4", value = 4 : i64} : () -> ()
  "disc_shape.SymbolicDim"() {knownNegativeOne = false, knownNonNegative = true, knownNonSizeOne = false, knownNonSizeZero = false, sym_name = "S1", value = -9223372036854775808 : i64} : () -> ()
  "disc_shape.SymbolicDim"() {knownNegativeOne = false, knownNonNegative = true, knownNonSizeOne = false, knownNonSizeZero = false, sym_name = "S2", value = -9223372036854775808 : i64} : () -> ()
  "disc_shape.SymbolicDim"() {knownNegativeOne = false, knownNonNegative = true, knownNonSizeOne = false, knownNonSizeZero = true, sym_name = "C1", value = 1 : i64} : () -> ()
  "disc_shape.SymbolicDim"() {knownNegativeOne = false, knownNonNegative = true, knownNonSizeOne = true, knownNonSizeZero = false, sym_name = "S3", value = -9223372036854775808 : i64} : () -> ()
  func.func @shape_constraint_graph() {
    %c4 = arith.constant 4 : index
    %0 = "disc_shape.dim"() {name = @S2} : () -> index
    %1 = "disc_shape.dim"() {name = @S3} : () -> index
    "disc_shape.tie_product_equal"(%c4, %0, %1) {operand_segment_sizes = array<i32: 2, 1>} : (index, index, index) -> ()
    return
  }
}


// -----// IR Dump After DiscMarkShapeCalculationPass (disc-mhlo-mark-shape-calc) //----- //
module {
  func.func @main(%arg0: tensor<?x4xf32, [@S0, @C4]>, %arg1: tensor<?x4xf32, [@S1, @C4]>) -> tensor<f32> attributes {tf.entry_function = {input_placements = "cpu,cpu", inputs = "arg0,arg1", output_placements = "cpu", outputs = "out0"}} {
    %c1 = arith.constant 1 : index
    %c4 = arith.constant 4 : index
    %c0 = arith.constant 0 : index
    %c4_i32 = arith.constant 4 : i32
    %c1_i32 = arith.constant 1 : i32
    %0 = mhlo.constant dense<0.000000e+00> : tensor<f32>
    %dim = tensor.dim %arg0, %c0 : tensor<?x4xf32, [@S0, @C4]>
    %dim_0 = tensor.dim %arg1, %c0 : tensor<?x4xf32, [@S1, @C4]>
    %1 = arith.cmpi eq, %dim_0, %c1 : index
    %2 = arith.select %1, %dim, %dim_0 : index
    %from_elements = tensor.from_elements %2, %c4 {disc.shape_op = true} : tensor<2xindex>
    %3 = "mhlo.dynamic_broadcast_in_dim"(%arg0, %from_elements) {broadcast_dimensions = dense<[0, 1]> : tensor<2xi64>} : (tensor<?x4xf32, [@S0, @C4]>, tensor<2xindex>) -> tensor<?x4xf32, [@S2, @C4]>
    %4 = "mhlo.dynamic_broadcast_in_dim"(%arg1, %from_elements) {broadcast_dimensions = dense<[0, 1]> : tensor<2xi64>} : (tensor<?x4xf32, [@S1, @C4]>, tensor<2xindex>) -> tensor<?x4xf32, [@S2, @C4]>
    %5 = mhlo.multiply %3, %4 : tensor<?x4xf32, [@S2, @C4]>
    %6 = arith.index_cast %2 : index to i32
    %7 = arith.muli %6, %c4_i32 : i32
    %from_elements_1 = tensor.from_elements %7, %c1_i32 {disc.shape_op = true} : tensor<2xi32>
    %8 = mhlo.dynamic_reshape %5, %from_elements_1 : (tensor<?x4xf32, [@S2, @C4]>, tensor<2xi32>) -> tensor<?x1xf32, [@S3, @C1]>
    %9 = mhlo.reduce(%8 init: %0) across dimensions = [0] : (tensor<?x1xf32, [@S3, @C1]>, tensor<f32>) -> tensor<1xf32>
     reducer(%arg2: tensor<f32>, %arg3: tensor<f32>)  {
      %11 = mhlo.add %arg2, %arg3 : tensor<f32>
      mhlo.return %11 : tensor<f32>
    }
    %10 = mhlo.reshape %9 : (tensor<1xf32>) -> tensor<f32>
    return %10 : tensor<f32>
  }
  "disc_shape.SymbolicDim"() {knownNegativeOne = false, knownNonNegative = true, knownNonSizeOne = false, knownNonSizeZero = false, sym_name = "S0", value = -9223372036854775808 : i64} : () -> ()
  "disc_shape.SymbolicDim"() {knownNegativeOne = false, knownNonNegative = true, knownNonSizeOne = true, knownNonSizeZero = true, sym_name = "C4", value = 4 : i64} : () -> ()
  "disc_shape.SymbolicDim"() {knownNegativeOne = false, knownNonNegative = true, knownNonSizeOne = false, knownNonSizeZero = false, sym_name = "S1", value = -9223372036854775808 : i64} : () -> ()
  "disc_shape.SymbolicDim"() {knownNegativeOne = false, knownNonNegative = true, knownNonSizeOne = false, knownNonSizeZero = false, sym_name = "S2", value = -9223372036854775808 : i64} : () -> ()
  "disc_shape.SymbolicDim"() {knownNegativeOne = false, knownNonNegative = true, knownNonSizeOne = false, knownNonSizeZero = true, sym_name = "C1", value = 1 : i64} : () -> ()
  "disc_shape.SymbolicDim"() {knownNegativeOne = false, knownNonNegative = true, knownNonSizeOne = true, knownNonSizeZero = false, sym_name = "S3", value = -9223372036854775808 : i64} : () -> ()
  func.func @shape_constraint_graph() {
    %c4 = arith.constant 4 : index
    %0 = "disc_shape.dim"() {name = @S2} : () -> index
    %1 = "disc_shape.dim"() {name = @S3} : () -> index
    "disc_shape.tie_product_equal"(%c4, %0, %1) {operand_segment_sizes = array<i32: 2, 1>} : (index, index, index) -> ()
    return
  }
}


// -----// IR Dump After PlaceOpsPass (mhlo-place-ops) //----- //
module {
  func.func @main(%arg0: tensor<?x4xf32, [@S0, @C4]>, %arg1: tensor<?x4xf32, [@S1, @C4]>) -> tensor<f32> attributes {tf.entry_function = {input_placements = "cpu,cpu", inputs = "arg0,arg1", output_placements = "cpu", outputs = "out0"}} {
    %c1 = arith.constant 1 : index
    %c4 = arith.constant 4 : index
    %c0 = arith.constant 0 : index
    %c4_i32 = arith.constant 4 : i32
    %c1_i32 = arith.constant 1 : i32
    %0 = mhlo.constant {disc.device = "gpu"} dense<0.000000e+00> : tensor<f32>
    %dim = tensor.dim %arg0, %c0 : tensor<?x4xf32, [@S0, @C4]>
    %dim_0 = tensor.dim %arg1, %c0 : tensor<?x4xf32, [@S1, @C4]>
    %1 = arith.cmpi eq, %dim_0, %c1 : index
    %2 = arith.select %1, %dim, %dim_0 : index
    %from_elements = tensor.from_elements %2, %c4 {disc.shape_op = true} : tensor<2xindex>
    %3 = "mhlo_disc.h2d"(%arg0) : (tensor<?x4xf32, [@S0, @C4]>) -> tensor<?x4xf32, [@S0, @C4]>
    %4 = "mhlo.dynamic_broadcast_in_dim"(%3, %from_elements) {broadcast_dimensions = dense<[0, 1]> : tensor<2xi64>, disc.device = "gpu"} : (tensor<?x4xf32, [@S0, @C4]>, tensor<2xindex>) -> tensor<?x4xf32, [@S2, @C4]>
    %5 = "mhlo_disc.h2d"(%arg1) : (tensor<?x4xf32, [@S1, @C4]>) -> tensor<?x4xf32, [@S1, @C4]>
    %6 = "mhlo.dynamic_broadcast_in_dim"(%5, %from_elements) {broadcast_dimensions = dense<[0, 1]> : tensor<2xi64>, disc.device = "gpu"} : (tensor<?x4xf32, [@S1, @C4]>, tensor<2xindex>) -> tensor<?x4xf32, [@S2, @C4]>
    %7 = mhlo.multiply %4, %6 {disc.device = "gpu"} : tensor<?x4xf32, [@S2, @C4]>
    %8 = arith.index_cast %2 : index to i32
    %9 = arith.muli %8, %c4_i32 : i32
    %from_elements_1 = tensor.from_elements %9, %c1_i32 {disc.shape_op = true} : tensor<2xi32>
    %10 = mhlo.dynamic_reshape %7, %from_elements_1 {disc.device = "gpu"} : (tensor<?x4xf32, [@S2, @C4]>, tensor<2xi32>) -> tensor<?x1xf32, [@S3, @C1]>
    %11 = mhlo.reduce(%10 init: %0) across dimensions = [0] {disc.device = "gpu"} : (tensor<?x1xf32, [@S3, @C1]>, tensor<f32>) -> tensor<1xf32>
     reducer(%arg2: tensor<f32>, %arg3: tensor<f32>)  {
      %14 = mhlo.add %arg2, %arg3 {disc.device = "gpu"} : tensor<f32>
      mhlo.return %14 : tensor<f32>
    }
    %12 = mhlo.reshape %11 {disc.device = "gpu"} : (tensor<1xf32>) -> tensor<f32>
    %13 = "mhlo_disc.d2h"(%12) {disc.device = "cpu"} : (tensor<f32>) -> tensor<f32>
    return %13 : tensor<f32>
  }
  "disc_shape.SymbolicDim"() {knownNegativeOne = false, knownNonNegative = true, knownNonSizeOne = false, knownNonSizeZero = false, sym_name = "S0", value = -9223372036854775808 : i64} : () -> ()
  "disc_shape.SymbolicDim"() {knownNegativeOne = false, knownNonNegative = true, knownNonSizeOne = true, knownNonSizeZero = true, sym_name = "C4", value = 4 : i64} : () -> ()
  "disc_shape.SymbolicDim"() {knownNegativeOne = false, knownNonNegative = true, knownNonSizeOne = false, knownNonSizeZero = false, sym_name = "S1", value = -9223372036854775808 : i64} : () -> ()
  "disc_shape.SymbolicDim"() {knownNegativeOne = false, knownNonNegative = true, knownNonSizeOne = false, knownNonSizeZero = false, sym_name = "S2", value = -9223372036854775808 : i64} : () -> ()
  "disc_shape.SymbolicDim"() {knownNegativeOne = false, knownNonNegative = true, knownNonSizeOne = false, knownNonSizeZero = true, sym_name = "C1", value = 1 : i64} : () -> ()
  "disc_shape.SymbolicDim"() {knownNegativeOne = false, knownNonNegative = true, knownNonSizeOne = true, knownNonSizeZero = false, sym_name = "S3", value = -9223372036854775808 : i64} : () -> ()
  func.func @shape_constraint_graph() {
    %c4 = arith.constant 4 : index
    %0 = "disc_shape.dim"() {name = @S2} : () -> index
    %1 = "disc_shape.dim"() {name = @S3} : () -> index
    "disc_shape.tie_product_equal"(%c4, %0, %1) {operand_segment_sizes = array<i32: 2, 1>} : (index, index, index) -> ()
    return
  }
}


SymbolicDimMgr::save walkRankedTensorValue takes: 10 us
SymbolicDimMgr::save update attributes takes: 2 us
SymbolicDimMgr::updateProductEqualityMap simplifySymbolicDimProductPair takes: 8 us
productSet.size() = 2
SymbolicDimMgr::updateProductEqualityMap propagate graph takes: 4 us
SymbolicDimMgr::updateProductEqualityMap remove multiply takes: 10 us
SymbolicDimMgr::updateProductEqualityMap build toRemove  takes: 0 us
SymbolicDimMgr::updateProductEqualityMap apply toRemove  takes: 0 us
SymbolicDimMgr::save updateProductEqualityMap takes: 44 us
SymbolicDimMgr::save updateFunctionType takes: 1 us
SymbolicDimMgr::save collect symbolicDim ops takes: 9 us
SymbolicDimMgr::save remove symbolicDim ops takes: 1 us
SymbolicDimMgr::save remove unused production takes: 0 us
SymbolicDimMgr::save remove unused production #2 takes: 0 us
SymbolicDimMgr::save canonicalize the name takes: 8 us
SymbolicDimMgr::save replace the name takes: 9 us
SymbolicDimMgr::save updateFunctionType takes: 0 us
// -----// IR Dump After DiscShapeOptimizationPass (disc-shape-optimization) //----- //
module {
  func.func @main(%arg0: tensor<?x4xf32, [@S0, @C4]>, %arg1: tensor<?x4xf32, [@S1, @C4]>) -> tensor<f32> attributes {tf.entry_function = {input_placements = "cpu,cpu", inputs = "arg0,arg1", output_placements = "cpu", outputs = "out0"}} {
    %c4 = arith.constant 4 : index
    %c0 = arith.constant 0 : index
    %c1 = arith.constant 1 : index
    %0 = mhlo.constant {disc.device = "gpu"} dense<0.000000e+00> : tensor<f32>
    %c1_i32 = arith.constant 1 : i32
    %c4_i32 = arith.constant 4 : i32
    %dim = tensor.dim %arg0, %c0 : tensor<?x4xf32, [@S0, @C4]>
    %dim_0 = tensor.dim %arg1, %c0 : tensor<?x4xf32, [@S1, @C4]>
    %1 = arith.cmpi eq, %dim_0, %c1 : index
    %2 = arith.select %1, %dim, %dim_0 : index
    %from_elements = tensor.from_elements %2, %c4 {disc.shape_op = true} : tensor<2xindex>
    %3 = "mhlo_disc.h2d"(%arg0) : (tensor<?x4xf32, [@S0, @C4]>) -> tensor<?x4xf32, [@S0, @C4]>
    %4 = "mhlo.dynamic_broadcast_in_dim"(%3, %from_elements) {broadcast_dimensions = dense<[0, 1]> : tensor<2xi64>, disc.device = "gpu"} : (tensor<?x4xf32, [@S0, @C4]>, tensor<2xindex>) -> tensor<?x4xf32, [@S2, @C4]>
    %5 = "mhlo_disc.h2d"(%arg1) : (tensor<?x4xf32, [@S1, @C4]>) -> tensor<?x4xf32, [@S1, @C4]>
    %6 = "mhlo.dynamic_broadcast_in_dim"(%5, %from_elements) {broadcast_dimensions = dense<[0, 1]> : tensor<2xi64>, disc.device = "gpu"} : (tensor<?x4xf32, [@S1, @C4]>, tensor<2xindex>) -> tensor<?x4xf32, [@S2, @C4]>
    %7 = mhlo.multiply %4, %6 {disc.device = "gpu"} : tensor<?x4xf32, [@S2, @C4]>
    %8 = arith.index_cast %2 : index to i32
    %9 = arith.muli %8, %c4_i32 : i32
    %from_elements_1 = tensor.from_elements %9, %c1_i32 {disc.shape_op = true} : tensor<2xi32>
    %10 = mhlo.dynamic_reshape %7, %from_elements_1 {disc.device = "gpu"} : (tensor<?x4xf32, [@S2, @C4]>, tensor<2xi32>) -> tensor<?x1xf32, [@S3, @C1]>
    %11 = mhlo.reduce(%10 init: %0) across dimensions = [0] {disc.device = "gpu"} : (tensor<?x1xf32, [@S3, @C1]>, tensor<f32>) -> tensor<1xf32>
     reducer(%arg2: tensor<f32>, %arg3: tensor<f32>)  {
      %14 = mhlo.add %arg2, %arg3 {disc.device = "gpu"} : tensor<f32>
      mhlo.return %14 : tensor<f32>
    }
    %12 = mhlo.reshape %11 {disc.device = "gpu"} : (tensor<1xf32>) -> tensor<f32>
    %13 = "mhlo_disc.d2h"(%12) {disc.device = "cpu"} : (tensor<f32>) -> tensor<f32>
    return %13 : tensor<f32>
  }
  "disc_shape.SymbolicDim"() {knownNegativeOne = false, knownNonNegative = true, knownNonSizeOne = false, knownNonSizeZero = false, sym_name = "S0", value = -9223372036854775808 : i64} : () -> ()
  "disc_shape.SymbolicDim"() {knownNegativeOne = false, knownNonNegative = true, knownNonSizeOne = true, knownNonSizeZero = true, sym_name = "C4", value = 4 : i64} : () -> ()
  "disc_shape.SymbolicDim"() {knownNegativeOne = false, knownNonNegative = true, knownNonSizeOne = false, knownNonSizeZero = false, sym_name = "S1", value = -9223372036854775808 : i64} : () -> ()
  "disc_shape.SymbolicDim"() {knownNegativeOne = false, knownNonNegative = true, knownNonSizeOne = false, knownNonSizeZero = false, sym_name = "S2", value = -9223372036854775808 : i64} : () -> ()
  "disc_shape.SymbolicDim"() {knownNegativeOne = false, knownNonNegative = true, knownNonSizeOne = false, knownNonSizeZero = true, sym_name = "C1", value = 1 : i64} : () -> ()
  "disc_shape.SymbolicDim"() {knownNegativeOne = false, knownNonNegative = true, knownNonSizeOne = true, knownNonSizeZero = false, sym_name = "S3", value = -9223372036854775808 : i64} : () -> ()
  func.func @shape_constraint_graph() {
    %c4 = arith.constant 4 : index
    %0 = "disc_shape.dim"() {name = @S2} : () -> index
    %1 = "disc_shape.dim"() {name = @S3} : () -> index
    "disc_shape.tie_product_equal"(%c4, %0, %1) {operand_segment_sizes = array<i32: 2, 1>} : (index, index, index) -> ()
    return
  }
}


SymbolicDimMgr::save walkRankedTensorValue takes: 10 us
SymbolicDimMgr::save update attributes takes: 2 us
SymbolicDimMgr::updateProductEqualityMap simplifySymbolicDimProductPair takes: 15 us
productSet.size() = 2
SymbolicDimMgr::updateProductEqualityMap propagate graph takes: 4 us
SymbolicDimMgr::updateProductEqualityMap remove multiply takes: 9 us
SymbolicDimMgr::updateProductEqualityMap build toRemove  takes: 0 us
SymbolicDimMgr::updateProductEqualityMap apply toRemove  takes: 0 us
SymbolicDimMgr::save updateProductEqualityMap takes: 50 us
SymbolicDimMgr::save updateFunctionType takes: 1 us
SymbolicDimMgr::save collect symbolicDim ops takes: 9 us
SymbolicDimMgr::save remove symbolicDim ops takes: 1 us
SymbolicDimMgr::save remove unused production takes: 0 us
SymbolicDimMgr::save remove unused production #2 takes: 0 us
SymbolicDimMgr::save canonicalize the name takes: 8 us
SymbolicDimMgr::save replace the name takes: 8 us
SymbolicDimMgr::save updateFunctionType takes: 1 us
// -----// IR Dump After DiscShapeOptimizationPass (disc-shape-optimization) //----- //
module {
  func.func @main(%arg0: tensor<?x4xf32, [@S0, @C4]>, %arg1: tensor<?x4xf32, [@S1, @C4]>) -> tensor<f32> attributes {tf.entry_function = {input_placements = "cpu,cpu", inputs = "arg0,arg1", output_placements = "cpu", outputs = "out0"}} {
    %c4 = arith.constant 4 : index
    %c0 = arith.constant 0 : index
    %c1 = arith.constant 1 : index
    %c4_i32 = arith.constant 4 : i32
    %c1_i32 = arith.constant 1 : i32
    %0 = mhlo.constant {disc.device = "gpu"} dense<0.000000e+00> : tensor<f32>
    %dim = tensor.dim %arg0, %c0 : tensor<?x4xf32, [@S0, @C4]>
    %dim_0 = tensor.dim %arg1, %c0 : tensor<?x4xf32, [@S1, @C4]>
    %1 = arith.cmpi eq, %dim_0, %c1 : index
    %2 = arith.select %1, %dim, %dim_0 : index
    %from_elements = tensor.from_elements %2, %c4 {disc.shape_op = true} : tensor<2xindex>
    %3 = "mhlo_disc.h2d"(%arg0) : (tensor<?x4xf32, [@S0, @C4]>) -> tensor<?x4xf32, [@S0, @C4]>
    %4 = "mhlo.dynamic_broadcast_in_dim"(%3, %from_elements) {broadcast_dimensions = dense<[0, 1]> : tensor<2xi64>, disc.device = "gpu"} : (tensor<?x4xf32, [@S0, @C4]>, tensor<2xindex>) -> tensor<?x4xf32, [@S2, @C4]>
    %5 = "mhlo_disc.h2d"(%arg1) : (tensor<?x4xf32, [@S1, @C4]>) -> tensor<?x4xf32, [@S1, @C4]>
    %6 = "mhlo.dynamic_broadcast_in_dim"(%5, %from_elements) {broadcast_dimensions = dense<[0, 1]> : tensor<2xi64>, disc.device = "gpu"} : (tensor<?x4xf32, [@S1, @C4]>, tensor<2xindex>) -> tensor<?x4xf32, [@S2, @C4]>
    %7 = mhlo.multiply %4, %6 {disc.device = "gpu"} : tensor<?x4xf32, [@S2, @C4]>
    %8 = arith.index_cast %2 : index to i32
    %9 = arith.muli %8, %c4_i32 : i32
    %from_elements_1 = tensor.from_elements %9, %c1_i32 {disc.shape_op = true} : tensor<2xi32>
    %10 = mhlo.dynamic_reshape %7, %from_elements_1 {disc.device = "gpu"} : (tensor<?x4xf32, [@S2, @C4]>, tensor<2xi32>) -> tensor<?x1xf32, [@S3, @C1]>
    %11 = mhlo.reduce(%10 init: %0) across dimensions = [0] {disc.device = "gpu"} : (tensor<?x1xf32, [@S3, @C1]>, tensor<f32>) -> tensor<1xf32>
     reducer(%arg2: tensor<f32>, %arg3: tensor<f32>)  {
      %14 = mhlo.add %arg2, %arg3 {disc.device = "gpu"} : tensor<f32>
      mhlo.return %14 : tensor<f32>
    }
    %12 = mhlo.reshape %11 {disc.device = "gpu"} : (tensor<1xf32>) -> tensor<f32>
    %13 = "mhlo_disc.d2h"(%12) {disc.device = "cpu"} : (tensor<f32>) -> tensor<f32>
    return %13 : tensor<f32>
  }
  "disc_shape.SymbolicDim"() {knownNegativeOne = false, knownNonNegative = true, knownNonSizeOne = false, knownNonSizeZero = false, sym_name = "S0", value = -9223372036854775808 : i64} : () -> ()
  "disc_shape.SymbolicDim"() {knownNegativeOne = false, knownNonNegative = true, knownNonSizeOne = true, knownNonSizeZero = true, sym_name = "C4", value = 4 : i64} : () -> ()
  "disc_shape.SymbolicDim"() {knownNegativeOne = false, knownNonNegative = true, knownNonSizeOne = false, knownNonSizeZero = false, sym_name = "S1", value = -9223372036854775808 : i64} : () -> ()
  "disc_shape.SymbolicDim"() {knownNegativeOne = false, knownNonNegative = true, knownNonSizeOne = false, knownNonSizeZero = false, sym_name = "S2", value = -9223372036854775808 : i64} : () -> ()
  "disc_shape.SymbolicDim"() {knownNegativeOne = false, knownNonNegative = true, knownNonSizeOne = false, knownNonSizeZero = true, sym_name = "C1", value = 1 : i64} : () -> ()
  "disc_shape.SymbolicDim"() {knownNegativeOne = false, knownNonNegative = true, knownNonSizeOne = true, knownNonSizeZero = false, sym_name = "S3", value = -9223372036854775808 : i64} : () -> ()
  func.func @shape_constraint_graph() {
    %c4 = arith.constant 4 : index
    %0 = "disc_shape.dim"() {name = @S2} : () -> index
    %1 = "disc_shape.dim"() {name = @S3} : () -> index
    "disc_shape.tie_product_equal"(%c4, %0, %1) {operand_segment_sizes = array<i32: 2, 1>} : (index, index, index) -> ()
    return
  }
}


SymbolicDimMgr::save walkRankedTensorValue takes: 10 us
SymbolicDimMgr::save update attributes takes: 2 us
SymbolicDimMgr::updateProductEqualityMap simplifySymbolicDimProductPair takes: 13 us
productSet.size() = 2
SymbolicDimMgr::updateProductEqualityMap propagate graph takes: 4 us
SymbolicDimMgr::updateProductEqualityMap remove multiply takes: 10 us
SymbolicDimMgr::updateProductEqualityMap build toRemove  takes: 0 us
SymbolicDimMgr::updateProductEqualityMap apply toRemove  takes: 0 us
SymbolicDimMgr::save updateProductEqualityMap takes: 54 us
SymbolicDimMgr::save updateFunctionType takes: 1 us
SymbolicDimMgr::save collect symbolicDim ops takes: 10 us
SymbolicDimMgr::save remove symbolicDim ops takes: 1 us
SymbolicDimMgr::save remove unused production takes: 0 us
SymbolicDimMgr::save remove unused production #2 takes: 0 us
SymbolicDimMgr::save canonicalize the name takes: 8 us
SymbolicDimMgr::save replace the name takes: 9 us
SymbolicDimMgr::save updateFunctionType takes: 1 us
// -----// IR Dump After DiscShapeOptimizationPass (disc-shape-optimization) //----- //
module {
  func.func @main(%arg0: tensor<?x4xf32, [@S0, @C4]>, %arg1: tensor<?x4xf32, [@S1, @C4]>) -> tensor<f32> attributes {tf.entry_function = {input_placements = "cpu,cpu", inputs = "arg0,arg1", output_placements = "cpu", outputs = "out0"}} {
    %c4 = arith.constant 4 : index
    %c0 = arith.constant 0 : index
    %c1 = arith.constant 1 : index
    %0 = mhlo.constant {disc.device = "gpu"} dense<0.000000e+00> : tensor<f32>
    %c1_i32 = arith.constant 1 : i32
    %c4_i32 = arith.constant 4 : i32
    %dim = tensor.dim %arg0, %c0 : tensor<?x4xf32, [@S0, @C4]>
    %dim_0 = tensor.dim %arg1, %c0 : tensor<?x4xf32, [@S1, @C4]>
    %1 = arith.cmpi eq, %dim_0, %c1 : index
    %2 = arith.select %1, %dim, %dim_0 : index
    %from_elements = tensor.from_elements %2, %c4 {disc.shape_op = true} : tensor<2xindex>
    %3 = "mhlo_disc.h2d"(%arg0) : (tensor<?x4xf32, [@S0, @C4]>) -> tensor<?x4xf32, [@S0, @C4]>
    %4 = "mhlo.dynamic_broadcast_in_dim"(%3, %from_elements) {broadcast_dimensions = dense<[0, 1]> : tensor<2xi64>, disc.device = "gpu"} : (tensor<?x4xf32, [@S0, @C4]>, tensor<2xindex>) -> tensor<?x4xf32, [@S2, @C4]>
    %5 = "mhlo_disc.h2d"(%arg1) : (tensor<?x4xf32, [@S1, @C4]>) -> tensor<?x4xf32, [@S1, @C4]>
    %6 = "mhlo.dynamic_broadcast_in_dim"(%5, %from_elements) {broadcast_dimensions = dense<[0, 1]> : tensor<2xi64>, disc.device = "gpu"} : (tensor<?x4xf32, [@S1, @C4]>, tensor<2xindex>) -> tensor<?x4xf32, [@S2, @C4]>
    %7 = mhlo.multiply %4, %6 {disc.device = "gpu"} : tensor<?x4xf32, [@S2, @C4]>
    %8 = arith.index_cast %2 : index to i32
    %9 = arith.muli %8, %c4_i32 : i32
    %from_elements_1 = tensor.from_elements %9, %c1_i32 {disc.shape_op = true} : tensor<2xi32>
    %10 = mhlo.dynamic_reshape %7, %from_elements_1 {disc.device = "gpu"} : (tensor<?x4xf32, [@S2, @C4]>, tensor<2xi32>) -> tensor<?x1xf32, [@S3, @C1]>
    %11 = mhlo.reduce(%10 init: %0) across dimensions = [0] {disc.device = "gpu"} : (tensor<?x1xf32, [@S3, @C1]>, tensor<f32>) -> tensor<1xf32>
     reducer(%arg2: tensor<f32>, %arg3: tensor<f32>)  {
      %14 = mhlo.add %arg2, %arg3 {disc.device = "gpu"} : tensor<f32>
      mhlo.return %14 : tensor<f32>
    }
    %12 = mhlo.reshape %11 {disc.device = "gpu"} : (tensor<1xf32>) -> tensor<f32>
    %13 = "mhlo_disc.d2h"(%12) {disc.device = "cpu"} : (tensor<f32>) -> tensor<f32>
    return %13 : tensor<f32>
  }
  "disc_shape.SymbolicDim"() {knownNegativeOne = false, knownNonNegative = true, knownNonSizeOne = false, knownNonSizeZero = false, sym_name = "S0", value = -9223372036854775808 : i64} : () -> ()
  "disc_shape.SymbolicDim"() {knownNegativeOne = false, knownNonNegative = true, knownNonSizeOne = true, knownNonSizeZero = true, sym_name = "C4", value = 4 : i64} : () -> ()
  "disc_shape.SymbolicDim"() {knownNegativeOne = false, knownNonNegative = true, knownNonSizeOne = false, knownNonSizeZero = false, sym_name = "S1", value = -9223372036854775808 : i64} : () -> ()
  "disc_shape.SymbolicDim"() {knownNegativeOne = false, knownNonNegative = true, knownNonSizeOne = false, knownNonSizeZero = false, sym_name = "S2", value = -9223372036854775808 : i64} : () -> ()
  "disc_shape.SymbolicDim"() {knownNegativeOne = false, knownNonNegative = true, knownNonSizeOne = false, knownNonSizeZero = true, sym_name = "C1", value = 1 : i64} : () -> ()
  "disc_shape.SymbolicDim"() {knownNegativeOne = false, knownNonNegative = true, knownNonSizeOne = true, knownNonSizeZero = false, sym_name = "S3", value = -9223372036854775808 : i64} : () -> ()
  func.func @shape_constraint_graph() {
    %c4 = arith.constant 4 : index
    %0 = "disc_shape.dim"() {name = @S2} : () -> index
    %1 = "disc_shape.dim"() {name = @S3} : () -> index
    "disc_shape.tie_product_equal"(%c4, %0, %1) {operand_segment_sizes = array<i32: 2, 1>} : (index, index, index) -> ()
    return
  }
}


SymbolicDimMgr::save walkRankedTensorValue takes: 10 us
SymbolicDimMgr::save update attributes takes: 2 us
SymbolicDimMgr::updateProductEqualityMap simplifySymbolicDimProductPair takes: 6 us
productSet.size() = 2
SymbolicDimMgr::updateProductEqualityMap propagate graph takes: 4 us
SymbolicDimMgr::updateProductEqualityMap remove multiply takes: 10 us
SymbolicDimMgr::updateProductEqualityMap build toRemove  takes: 0 us
SymbolicDimMgr::updateProductEqualityMap apply toRemove  takes: 0 us
SymbolicDimMgr::save updateProductEqualityMap takes: 41 us
SymbolicDimMgr::save updateFunctionType takes: 1 us
SymbolicDimMgr::save collect symbolicDim ops takes: 9 us
SymbolicDimMgr::save remove symbolicDim ops takes: 1 us
SymbolicDimMgr::save remove unused production takes: 0 us
SymbolicDimMgr::save remove unused production #2 takes: 0 us
SymbolicDimMgr::save canonicalize the name takes: 8 us
SymbolicDimMgr::save replace the name takes: 8 us
SymbolicDimMgr::save updateFunctionType takes: 1 us
// -----// IR Dump After DiscShapeOptimizationPass (disc-shape-optimization) //----- //
module {
  func.func @main(%arg0: tensor<?x4xf32>, %arg1: tensor<?x4xf32>) -> tensor<f32> attributes {tf.entry_function = {input_placements = "cpu,cpu", inputs = "arg0,arg1", output_placements = "cpu", outputs = "out0"}} {
    %c4 = arith.constant 4 : index
    %c2 = arith.constant 2 : index
    %c0 = arith.constant 0 : index
    %c1 = arith.constant 1 : index
    %c4_i32 = arith.constant 4 : i32
    %c1_i32 = arith.constant 1 : i32
    %0 = mhlo.constant {disc.device = "gpu"} dense<0.000000e+00> : tensor<f32>
    %dim = tensor.dim %arg0, %c0 : tensor<?x4xf32>
    %1 = "disc_shape.tie_shape"(%arg0, %dim, %c4) {kDiscSymbolicDimAttr = [@S0, @C4]} : (tensor<?x4xf32>, index, index) -> tensor<?x4xf32>
    %dim_0 = tensor.dim %arg1, %c0 : tensor<?x4xf32>
    %2 = "disc_shape.tie_shape"(%arg1, %dim_0, %c4) {kDiscSymbolicDimAttr = [@S1, @C4]} : (tensor<?x4xf32>, index, index) -> tensor<?x4xf32>
    %3 = arith.cmpi eq, %dim_0, %c1 : index
    %4 = arith.select %3, %dim, %dim_0 : index
    %from_elements = tensor.from_elements %4, %c4 {disc.shape_op = true} : tensor<2xindex>
    %5 = "disc_shape.tie_shape"(%from_elements, %c2) : (tensor<2xindex>, index) -> tensor<2xindex>
    %6 = "mhlo_disc.h2d"(%1) : (tensor<?x4xf32>) -> tensor<?x4xf32>
    %7 = "disc_shape.tie_shape"(%6, %dim, %c4) {kDiscSymbolicDimAttr = [@S0, @C4]} : (tensor<?x4xf32>, index, index) -> tensor<?x4xf32>
    %8 = "mhlo.dynamic_broadcast_in_dim"(%7, %5) {broadcast_dimensions = dense<[0, 1]> : tensor<2xi64>, disc.device = "gpu"} : (tensor<?x4xf32>, tensor<2xindex>) -> tensor<?x4xf32>
    %9 = "disc_shape.tie_shape"(%8, %4, %c4) {kDiscSymbolicDimAttr = [@S2, @C4]} : (tensor<?x4xf32>, index, index) -> tensor<?x4xf32>
    %10 = "mhlo_disc.h2d"(%2) : (tensor<?x4xf32>) -> tensor<?x4xf32>
    %11 = "disc_shape.tie_shape"(%10, %dim_0, %c4) {kDiscSymbolicDimAttr = [@S1, @C4]} : (tensor<?x4xf32>, index, index) -> tensor<?x4xf32>
    %12 = "mhlo.dynamic_broadcast_in_dim"(%11, %5) {broadcast_dimensions = dense<[0, 1]> : tensor<2xi64>, disc.device = "gpu"} : (tensor<?x4xf32>, tensor<2xindex>) -> tensor<?x4xf32>
    %13 = "disc_shape.tie_shape"(%12, %4, %c4) {kDiscSymbolicDimAttr = [@S2, @C4]} : (tensor<?x4xf32>, index, index) -> tensor<?x4xf32>
    %14 = mhlo.multiply %9, %13 {disc.device = "gpu"} : tensor<?x4xf32>
    %15 = "disc_shape.tie_shape"(%14, %4, %c4) {kDiscSymbolicDimAttr = [@S2, @C4]} : (tensor<?x4xf32>, index, index) -> tensor<?x4xf32>
    %16 = arith.index_cast %4 : index to i32
    %17 = arith.muli %16, %c4_i32 : i32
    %from_elements_1 = tensor.from_elements %17, %c1_i32 {disc.shape_op = true} : tensor<2xi32>
    %18 = "disc_shape.tie_shape"(%from_elements_1, %c2) : (tensor<2xi32>, index) -> tensor<2xi32>
    %19 = arith.index_cast %17 : i32 to index
    %20 = mhlo.dynamic_reshape %15, %18 {disc.device = "gpu"} : (tensor<?x4xf32>, tensor<2xi32>) -> tensor<?x1xf32>
    %21 = "disc_shape.tie_shape"(%20, %19, %c1) {kDiscSymbolicDimAttr = [@S3, @C1]} : (tensor<?x1xf32>, index, index) -> tensor<?x1xf32>
    %22 = mhlo.reduce(%21 init: %0) across dimensions = [0] {disc.device = "gpu"} : (tensor<?x1xf32>, tensor<f32>) -> tensor<1xf32>
     reducer(%arg2: tensor<f32>, %arg3: tensor<f32>)  {
      %26 = mhlo.add %arg2, %arg3 {disc.device = "gpu"} : tensor<f32>
      mhlo.return %26 : tensor<f32>
    }
    %23 = "disc_shape.tie_shape"(%22, %c1) : (tensor<1xf32>, index) -> tensor<1xf32>
    %24 = mhlo.reshape %23 {disc.device = "gpu"} : (tensor<1xf32>) -> tensor<f32>
    %25 = "mhlo_disc.d2h"(%24) {disc.device = "cpu"} : (tensor<f32>) -> tensor<f32>
    return %25 : tensor<f32>
  }
  "disc_shape.SymbolicDim"() {knownNegativeOne = false, knownNonNegative = true, knownNonSizeOne = false, knownNonSizeZero = false, sym_name = "S0", value = -9223372036854775808 : i64} : () -> ()
  "disc_shape.SymbolicDim"() {knownNegativeOne = false, knownNonNegative = true, knownNonSizeOne = true, knownNonSizeZero = true, sym_name = "C4", value = 4 : i64} : () -> ()
  "disc_shape.SymbolicDim"() {knownNegativeOne = false, knownNonNegative = true, knownNonSizeOne = false, knownNonSizeZero = false, sym_name = "S1", value = -9223372036854775808 : i64} : () -> ()
  "disc_shape.SymbolicDim"() {knownNegativeOne = false, knownNonNegative = true, knownNonSizeOne = false, knownNonSizeZero = false, sym_name = "S2", value = -9223372036854775808 : i64} : () -> ()
  "disc_shape.SymbolicDim"() {knownNegativeOne = false, knownNonNegative = true, knownNonSizeOne = false, knownNonSizeZero = true, sym_name = "C1", value = 1 : i64} : () -> ()
  "disc_shape.SymbolicDim"() {knownNegativeOne = false, knownNonNegative = true, knownNonSizeOne = true, knownNonSizeZero = false, sym_name = "S3", value = -9223372036854775808 : i64} : () -> ()
  func.func @shape_constraint_graph() {
    %c4 = arith.constant 4 : index
    %0 = "disc_shape.dim"() {name = @S2} : () -> index
    %1 = "disc_shape.dim"() {name = @S3} : () -> index
    "disc_shape.tie_product_equal"(%c4, %0, %1) {operand_segment_sizes = array<i32: 2, 1>} : (index, index, index) -> ()
    return
  }
}


// -----// IR Dump After Canonicalizer (canonicalize) //----- //
func.func @main(%arg0: tensor<?x4xf32>, %arg1: tensor<?x4xf32>) -> tensor<f32> attributes {tf.entry_function = {input_placements = "cpu,cpu", inputs = "arg0,arg1", output_placements = "cpu", outputs = "out0"}} {
  %c4 = arith.constant 4 : index
  %c0 = arith.constant 0 : index
  %c1 = arith.constant 1 : index
  %c4_i32 = arith.constant 4 : i32
  %c1_i32 = arith.constant 1 : i32
  %0 = mhlo.constant {disc.device = "gpu"} dense<0.000000e+00> : tensor<f32>
  %dim = tensor.dim %arg0, %c0 : tensor<?x4xf32>
  %1 = "disc_shape.tie_shape"(%arg0, %dim, %c4) {kDiscSymbolicDimAttr = [@S0, @C4]} : (tensor<?x4xf32>, index, index) -> tensor<?x4xf32>
  %dim_0 = tensor.dim %arg1, %c0 : tensor<?x4xf32>
  %2 = "disc_shape.tie_shape"(%arg1, %dim_0, %c4) {kDiscSymbolicDimAttr = [@S1, @C4]} : (tensor<?x4xf32>, index, index) -> tensor<?x4xf32>
  %3 = arith.cmpi eq, %dim_0, %c1 : index
  %4 = arith.select %3, %dim, %dim_0 : index
  %from_elements = tensor.from_elements %4, %c4 {disc.shape_op = true} : tensor<2xindex>
  %5 = "mhlo_disc.h2d"(%1) : (tensor<?x4xf32>) -> tensor<?x4xf32>
  %6 = "disc_shape.tie_shape"(%5, %dim, %c4) {kDiscSymbolicDimAttr = [@S0, @C4]} : (tensor<?x4xf32>, index, index) -> tensor<?x4xf32>
  %7 = "mhlo.dynamic_broadcast_in_dim"(%6, %from_elements) {broadcast_dimensions = dense<[0, 1]> : tensor<2xi64>, disc.device = "gpu"} : (tensor<?x4xf32>, tensor<2xindex>) -> tensor<?x4xf32>
  %8 = "disc_shape.tie_shape"(%7, %4, %c4) {kDiscSymbolicDimAttr = [@S2, @C4]} : (tensor<?x4xf32>, index, index) -> tensor<?x4xf32>
  %9 = "mhlo_disc.h2d"(%2) : (tensor<?x4xf32>) -> tensor<?x4xf32>
  %10 = "disc_shape.tie_shape"(%9, %dim_0, %c4) {kDiscSymbolicDimAttr = [@S1, @C4]} : (tensor<?x4xf32>, index, index) -> tensor<?x4xf32>
  %11 = "mhlo.dynamic_broadcast_in_dim"(%10, %from_elements) {broadcast_dimensions = dense<[0, 1]> : tensor<2xi64>, disc.device = "gpu"} : (tensor<?x4xf32>, tensor<2xindex>) -> tensor<?x4xf32>
  %12 = "disc_shape.tie_shape"(%11, %4, %c4) {kDiscSymbolicDimAttr = [@S2, @C4]} : (tensor<?x4xf32>, index, index) -> tensor<?x4xf32>
  %13 = mhlo.multiply %8, %12 {disc.device = "gpu"} : tensor<?x4xf32>
  %14 = "disc_shape.tie_shape"(%13, %4, %c4) {kDiscSymbolicDimAttr = [@S2, @C4]} : (tensor<?x4xf32>, index, index) -> tensor<?x4xf32>
  %15 = arith.index_cast %4 : index to i32
  %16 = arith.muli %15, %c4_i32 : i32
  %from_elements_1 = tensor.from_elements %16, %c1_i32 {disc.shape_op = true} : tensor<2xi32>
  %17 = arith.index_cast %16 : i32 to index
  %18 = mhlo.dynamic_reshape %14, %from_elements_1 {disc.device = "gpu"} : (tensor<?x4xf32>, tensor<2xi32>) -> tensor<?x1xf32>
  %19 = "disc_shape.tie_shape"(%18, %17, %c1) {kDiscSymbolicDimAttr = [@S3, @C1]} : (tensor<?x1xf32>, index, index) -> tensor<?x1xf32>
  %20 = mhlo.reduce(%19 init: %0) across dimensions = [0] {disc.device = "gpu"} : (tensor<?x1xf32>, tensor<f32>) -> tensor<1xf32>
   reducer(%arg2: tensor<f32>, %arg3: tensor<f32>)  {
    %23 = mhlo.add %arg2, %arg3 {disc.device = "gpu"} : tensor<f32>
    mhlo.return %23 : tensor<f32>
  }
  %21 = mhlo.reshape %20 {disc.device = "gpu"} : (tensor<1xf32>) -> tensor<f32>
  %22 = "mhlo_disc.d2h"(%21) {disc.device = "cpu"} : (tensor<f32>) -> tensor<f32>
  return %22 : tensor<f32>
}

// -----// IR Dump After FuncBufferize (func-bufferize) //----- //
module {
  func.func @main(%arg0: memref<?x4xf32>, %arg1: memref<?x4xf32>) -> memref<f32> attributes {tf.entry_function = {input_placements = "cpu,cpu", inputs = "arg0,arg1", output_placements = "cpu", outputs = "out0"}} {
    %0 = bufferization.to_tensor %arg1 : memref<?x4xf32>
    %1 = bufferization.to_tensor %arg0 : memref<?x4xf32>
    %c4 = arith.constant 4 : index
    %c0 = arith.constant 0 : index
    %c1 = arith.constant 1 : index
    %c4_i32 = arith.constant 4 : i32
    %c1_i32 = arith.constant 1 : i32
    %2 = mhlo.constant {disc.device = "gpu"} dense<0.000000e+00> : tensor<f32>
    %dim = tensor.dim %1, %c0 : tensor<?x4xf32>
    %3 = "disc_shape.tie_shape"(%1, %dim, %c4) {kDiscSymbolicDimAttr = [@S0, @C4]} : (tensor<?x4xf32>, index, index) -> tensor<?x4xf32>
    %dim_0 = tensor.dim %0, %c0 : tensor<?x4xf32>
    %4 = "disc_shape.tie_shape"(%0, %dim_0, %c4) {kDiscSymbolicDimAttr = [@S1, @C4]} : (tensor<?x4xf32>, index, index) -> tensor<?x4xf32>
    %5 = arith.cmpi eq, %dim_0, %c1 : index
    %6 = arith.select %5, %dim, %dim_0 : index
    %from_elements = tensor.from_elements %6, %c4 {disc.shape_op = true} : tensor<2xindex>
    %7 = "mhlo_disc.h2d"(%3) : (tensor<?x4xf32>) -> tensor<?x4xf32>
    %8 = "disc_shape.tie_shape"(%7, %dim, %c4) {kDiscSymbolicDimAttr = [@S0, @C4]} : (tensor<?x4xf32>, index, index) -> tensor<?x4xf32>
    %9 = "mhlo.dynamic_broadcast_in_dim"(%8, %from_elements) {broadcast_dimensions = dense<[0, 1]> : tensor<2xi64>, disc.device = "gpu"} : (tensor<?x4xf32>, tensor<2xindex>) -> tensor<?x4xf32>
    %10 = "disc_shape.tie_shape"(%9, %6, %c4) {kDiscSymbolicDimAttr = [@S2, @C4]} : (tensor<?x4xf32>, index, index) -> tensor<?x4xf32>
    %11 = "mhlo_disc.h2d"(%4) : (tensor<?x4xf32>) -> tensor<?x4xf32>
    %12 = "disc_shape.tie_shape"(%11, %dim_0, %c4) {kDiscSymbolicDimAttr = [@S1, @C4]} : (tensor<?x4xf32>, index, index) -> tensor<?x4xf32>
    %13 = "mhlo.dynamic_broadcast_in_dim"(%12, %from_elements) {broadcast_dimensions = dense<[0, 1]> : tensor<2xi64>, disc.device = "gpu"} : (tensor<?x4xf32>, tensor<2xindex>) -> tensor<?x4xf32>
    %14 = "disc_shape.tie_shape"(%13, %6, %c4) {kDiscSymbolicDimAttr = [@S2, @C4]} : (tensor<?x4xf32>, index, index) -> tensor<?x4xf32>
    %15 = mhlo.multiply %10, %14 {disc.device = "gpu"} : tensor<?x4xf32>
    %16 = "disc_shape.tie_shape"(%15, %6, %c4) {kDiscSymbolicDimAttr = [@S2, @C4]} : (tensor<?x4xf32>, index, index) -> tensor<?x4xf32>
    %17 = arith.index_cast %6 : index to i32
    %18 = arith.muli %17, %c4_i32 : i32
    %from_elements_1 = tensor.from_elements %18, %c1_i32 {disc.shape_op = true} : tensor<2xi32>
    %19 = arith.index_cast %18 : i32 to index
    %20 = mhlo.dynamic_reshape %16, %from_elements_1 {disc.device = "gpu"} : (tensor<?x4xf32>, tensor<2xi32>) -> tensor<?x1xf32>
    %21 = "disc_shape.tie_shape"(%20, %19, %c1) {kDiscSymbolicDimAttr = [@S3, @C1]} : (tensor<?x1xf32>, index, index) -> tensor<?x1xf32>
    %22 = mhlo.reduce(%21 init: %2) across dimensions = [0] {disc.device = "gpu"} : (tensor<?x1xf32>, tensor<f32>) -> tensor<1xf32>
     reducer(%arg2: tensor<f32>, %arg3: tensor<f32>)  {
      %26 = mhlo.add %arg2, %arg3 {disc.device = "gpu"} : tensor<f32>
      mhlo.return %26 : tensor<f32>
    }
    %23 = mhlo.reshape %22 {disc.device = "gpu"} : (tensor<1xf32>) -> tensor<f32>
    %24 = "mhlo_disc.d2h"(%23) {disc.device = "cpu"} : (tensor<f32>) -> tensor<f32>
    %25 = bufferization.to_memref %24 : memref<f32>
    return %25 : memref<f32>
  }
  "disc_shape.SymbolicDim"() {knownNegativeOne = false, knownNonNegative = true, knownNonSizeOne = false, knownNonSizeZero = false, sym_name = "S0", value = -9223372036854775808 : i64} : () -> ()
  "disc_shape.SymbolicDim"() {knownNegativeOne = false, knownNonNegative = true, knownNonSizeOne = true, knownNonSizeZero = true, sym_name = "C4", value = 4 : i64} : () -> ()
  "disc_shape.SymbolicDim"() {knownNegativeOne = false, knownNonNegative = true, knownNonSizeOne = false, knownNonSizeZero = false, sym_name = "S1", value = -9223372036854775808 : i64} : () -> ()
  "disc_shape.SymbolicDim"() {knownNegativeOne = false, knownNonNegative = true, knownNonSizeOne = false, knownNonSizeZero = false, sym_name = "S2", value = -9223372036854775808 : i64} : () -> ()
  "disc_shape.SymbolicDim"() {knownNegativeOne = false, knownNonNegative = true, knownNonSizeOne = false, knownNonSizeZero = true, sym_name = "C1", value = 1 : i64} : () -> ()
  "disc_shape.SymbolicDim"() {knownNegativeOne = false, knownNonNegative = true, knownNonSizeOne = true, knownNonSizeZero = false, sym_name = "S3", value = -9223372036854775808 : i64} : () -> ()
  func.func @shape_constraint_graph() {
    %c4 = arith.constant 4 : index
    %0 = "disc_shape.dim"() {name = @S2} : () -> index
    %1 = "disc_shape.dim"() {name = @S3} : () -> index
    "disc_shape.tie_product_equal"(%c4, %0, %1) {operand_segment_sizes = array<i32: 2, 1>} : (index, index, index) -> ()
    return
  }
}


// -----// IR Dump After DiscHloLegalizeToLhloPass (disc-hlo-legalize-to-lhlo) //----- //
module {
  func.func @main(%arg0: memref<?x4xf32>, %arg1: memref<?x4xf32>) -> memref<f32> attributes {tf.entry_function = {input_placements = "cpu,cpu", inputs = "arg0,arg1", output_placements = "cpu", outputs = "out0"}} {
    %0 = bufferization.to_tensor %arg1 : memref<?x4xf32>
    %1 = bufferization.to_memref %0 : memref<?x4xf32>
    %2 = bufferization.to_tensor %arg0 : memref<?x4xf32>
    %3 = bufferization.to_memref %2 : memref<?x4xf32>
    %c4 = arith.constant 4 : index
    %c0 = arith.constant 0 : index
    %c1 = arith.constant 1 : index
    %c4_i32 = arith.constant 4 : i32
    %c1_i32 = arith.constant 1 : i32
    %4 = mhlo.constant {disc.device = "gpu"} dense<0.000000e+00> : tensor<f32>
    %dim = tensor.dim %2, %c0 : tensor<?x4xf32>
    %c4_0 = arith.constant 4 : index
    %5 = arith.muli %c4_0, %dim : index
    %reinterpret_cast = memref.reinterpret_cast %3 to offset: [0], sizes: [%dim, 4], strides: [4, 1] {kDiscSymbolicDimAttr = [@S0, @C4]} : memref<?x4xf32> to memref<?x4xf32>
    %dim_1 = tensor.dim %0, %c0 : tensor<?x4xf32>
    %c4_2 = arith.constant 4 : index
    %6 = arith.muli %c4_2, %dim_1 : index
    %reinterpret_cast_3 = memref.reinterpret_cast %1 to offset: [0], sizes: [%dim_1, 4], strides: [4, 1] {kDiscSymbolicDimAttr = [@S1, @C4]} : memref<?x4xf32> to memref<?x4xf32>
    %7 = arith.cmpi eq, %dim_1, %c1 : index
    %8 = arith.select %7, %dim, %dim_1 : index
    %from_elements = tensor.from_elements %8, %c4 {disc.shape_op = true} : tensor<2xindex>
    %9 = bufferization.to_tensor %reinterpret_cast : memref<?x4xf32>
    %10 = shape.shape_of %9 : tensor<?x4xf32> -> tensor<2xindex>
    %c0_4 = arith.constant 0 : index
    %extracted = tensor.extract %10[%c0_4] : tensor<2xindex>
    %alloc = memref.alloc(%extracted) : memref<?x4xf32>
    "lmhlo_disc.h2d"(%reinterpret_cast, %alloc) : (memref<?x4xf32>, memref<?x4xf32>) -> ()
    %c4_5 = arith.constant 4 : index
    %11 = arith.muli %c4_5, %dim : index
    %reinterpret_cast_6 = memref.reinterpret_cast %alloc to offset: [0], sizes: [%dim, 4], strides: [4, 1] {kDiscSymbolicDimAttr = [@S0, @C4]} : memref<?x4xf32> to memref<?x4xf32>
    %12 = bufferization.to_tensor %reinterpret_cast_6 : memref<?x4xf32>
    %13 = "mhlo.dynamic_broadcast_in_dim"(%12, %from_elements) {broadcast_dimensions = dense<[0, 1]> : tensor<2xi64>, disc.device = "gpu"} : (tensor<?x4xf32>, tensor<2xindex>) -> tensor<?x4xf32>
    %14 = bufferization.to_memref %13 : memref<?x4xf32>
    %c4_7 = arith.constant 4 : index
    %15 = arith.muli %c4_7, %8 : index
    %reinterpret_cast_8 = memref.reinterpret_cast %14 to offset: [0], sizes: [%8, 4], strides: [4, 1] {kDiscSymbolicDimAttr = [@S2, @C4]} : memref<?x4xf32> to memref<?x4xf32>
    %16 = bufferization.to_tensor %reinterpret_cast_8 : memref<?x4xf32>
    %17 = bufferization.to_tensor %reinterpret_cast_3 : memref<?x4xf32>
    %18 = shape.shape_of %17 : tensor<?x4xf32> -> tensor<2xindex>
    %c0_9 = arith.constant 0 : index
    %extracted_10 = tensor.extract %18[%c0_9] : tensor<2xindex>
    %alloc_11 = memref.alloc(%extracted_10) : memref<?x4xf32>
    "lmhlo_disc.h2d"(%reinterpret_cast_3, %alloc_11) : (memref<?x4xf32>, memref<?x4xf32>) -> ()
    %c4_12 = arith.constant 4 : index
    %19 = arith.muli %c4_12, %dim_1 : index
    %reinterpret_cast_13 = memref.reinterpret_cast %alloc_11 to offset: [0], sizes: [%dim_1, 4], strides: [4, 1] {kDiscSymbolicDimAttr = [@S1, @C4]} : memref<?x4xf32> to memref<?x4xf32>
    %20 = bufferization.to_tensor %reinterpret_cast_13 : memref<?x4xf32>
    %21 = "mhlo.dynamic_broadcast_in_dim"(%20, %from_elements) {broadcast_dimensions = dense<[0, 1]> : tensor<2xi64>, disc.device = "gpu"} : (tensor<?x4xf32>, tensor<2xindex>) -> tensor<?x4xf32>
    %22 = bufferization.to_memref %21 : memref<?x4xf32>
    %c4_14 = arith.constant 4 : index
    %23 = arith.muli %c4_14, %8 : index
    %reinterpret_cast_15 = memref.reinterpret_cast %22 to offset: [0], sizes: [%8, 4], strides: [4, 1] {kDiscSymbolicDimAttr = [@S2, @C4]} : memref<?x4xf32> to memref<?x4xf32>
    %24 = bufferization.to_tensor %reinterpret_cast_15 : memref<?x4xf32>
    %25 = mhlo.multiply %16, %24 {disc.device = "gpu"} : tensor<?x4xf32>
    %26 = bufferization.to_memref %25 : memref<?x4xf32>
    %c4_16 = arith.constant 4 : index
    %27 = arith.muli %c4_16, %8 : index
    %reinterpret_cast_17 = memref.reinterpret_cast %26 to offset: [0], sizes: [%8, 4], strides: [4, 1] {kDiscSymbolicDimAttr = [@S2, @C4]} : memref<?x4xf32> to memref<?x4xf32>
    %28 = bufferization.to_tensor %reinterpret_cast_17 : memref<?x4xf32>
    %29 = arith.index_cast %8 : index to i32
    %30 = arith.muli %29, %c4_i32 : i32
    %from_elements_18 = tensor.from_elements %30, %c1_i32 {disc.shape_op = true} : tensor<2xi32>
    %31 = arith.index_cast %30 : i32 to index
    %32 = mhlo.dynamic_reshape %28, %from_elements_18 {disc.device = "gpu"} : (tensor<?x4xf32>, tensor<2xi32>) -> tensor<?x1xf32>
    %33 = bufferization.to_memref %32 : memref<?x1xf32>
    %c1_19 = arith.constant 1 : index
    %34 = arith.muli %c1_19, %31 : index
    %reinterpret_cast_20 = memref.reinterpret_cast %33 to offset: [0], sizes: [%31, 1], strides: [1, 1] {kDiscSymbolicDimAttr = [@S3, @C1]} : memref<?x1xf32> to memref<?x1xf32>
    %35 = bufferization.to_tensor %reinterpret_cast_20 : memref<?x1xf32>
    %36 = mhlo.reduce(%35 init: %4) across dimensions = [0] {disc.device = "gpu"} : (tensor<?x1xf32>, tensor<f32>) -> tensor<1xf32>
     reducer(%arg2: tensor<f32>, %arg3: tensor<f32>)  {
      %41 = mhlo.add %arg2, %arg3 {disc.device = "gpu"} : tensor<f32>
      mhlo.return %41 : tensor<f32>
    }
    %37 = mhlo.reshape %36 {disc.device = "gpu"} : (tensor<1xf32>) -> tensor<f32>
    %38 = bufferization.to_memref %37 : memref<f32>
    %alloc_21 = memref.alloc() : memref<f32>
    "lmhlo_disc.d2h"(%38, %alloc_21) {disc.device = "cpu"} : (memref<f32>, memref<f32>) -> ()
    %39 = bufferization.to_tensor %alloc_21 : memref<f32>
    %40 = bufferization.to_memref %39 : memref<f32>
    return %40 : memref<f32>
  }
  "disc_shape.SymbolicDim"() {knownNegativeOne = false, knownNonNegative = true, knownNonSizeOne = false, knownNonSizeZero = false, sym_name = "S0", value = -9223372036854775808 : i64} : () -> ()
  "disc_shape.SymbolicDim"() {knownNegativeOne = false, knownNonNegative = true, knownNonSizeOne = true, knownNonSizeZero = true, sym_name = "C4", value = 4 : i64} : () -> ()
  "disc_shape.SymbolicDim"() {knownNegativeOne = false, knownNonNegative = true, knownNonSizeOne = false, knownNonSizeZero = false, sym_name = "S1", value = -9223372036854775808 : i64} : () -> ()
  "disc_shape.SymbolicDim"() {knownNegativeOne = false, knownNonNegative = true, knownNonSizeOne = false, knownNonSizeZero = false, sym_name = "S2", value = -9223372036854775808 : i64} : () -> ()
  "disc_shape.SymbolicDim"() {knownNegativeOne = false, knownNonNegative = true, knownNonSizeOne = false, knownNonSizeZero = true, sym_name = "C1", value = 1 : i64} : () -> ()
  "disc_shape.SymbolicDim"() {knownNegativeOne = false, knownNonNegative = true, knownNonSizeOne = true, knownNonSizeZero = false, sym_name = "S3", value = -9223372036854775808 : i64} : () -> ()
  func.func @shape_constraint_graph() {
    %c4 = arith.constant 4 : index
    %0 = "disc_shape.dim"() {name = @S2} : () -> index
    %1 = "disc_shape.dim"() {name = @S3} : () -> index
    "disc_shape.tie_product_equal"(%c4, %0, %1) {operand_segment_sizes = array<i32: 2, 1>} : (index, index, index) -> ()
    return
  }
}


// -----// IR Dump After HloLegalizeToLhloPass (hlo-legalize-to-lhlo) //----- //
module {
  func.func @main(%arg0: memref<?x4xf32>, %arg1: memref<?x4xf32>) -> memref<f32> attributes {tf.entry_function = {input_placements = "cpu,cpu", inputs = "arg0,arg1", output_placements = "cpu", outputs = "out0"}} {
    %0 = bufferization.to_tensor %arg1 : memref<?x4xf32>
    %1 = bufferization.to_tensor %arg0 : memref<?x4xf32>
    %c4 = arith.constant 4 : index
    %c0 = arith.constant 0 : index
    %c1 = arith.constant 1 : index
    %c4_i32 = arith.constant 4 : i32
    %c1_i32 = arith.constant 1 : i32
    %alloc = memref.alloc() : memref<f32>
    "lmhlo.constant"(%alloc) {disc.device = "gpu", value = dense<0.000000e+00> : tensor<f32>} : (memref<f32>) -> ()
    %dim = tensor.dim %1, %c0 : tensor<?x4xf32>
    %c4_0 = arith.constant 4 : index
    %2 = arith.muli %c4_0, %dim : index
    %reinterpret_cast = memref.reinterpret_cast %arg0 to offset: [0], sizes: [%dim, 4], strides: [4, 1] {kDiscSymbolicDimAttr = [@S0, @C4]} : memref<?x4xf32> to memref<?x4xf32>
    %dim_1 = tensor.dim %0, %c0 : tensor<?x4xf32>
    %c4_2 = arith.constant 4 : index
    %3 = arith.muli %c4_2, %dim_1 : index
    %reinterpret_cast_3 = memref.reinterpret_cast %arg1 to offset: [0], sizes: [%dim_1, 4], strides: [4, 1] {kDiscSymbolicDimAttr = [@S1, @C4]} : memref<?x4xf32> to memref<?x4xf32>
    %4 = arith.cmpi eq, %dim_1, %c1 : index
    %5 = arith.select %4, %dim, %dim_1 : index
    %from_elements = tensor.from_elements %5, %c4 {disc.shape_op = true} : tensor<2xindex>
    %6 = bufferization.to_memref %from_elements : memref<2xindex>
    %7 = bufferization.to_tensor %reinterpret_cast : memref<?x4xf32>
    %8 = shape.shape_of %7 : tensor<?x4xf32> -> tensor<2xindex>
    %c0_4 = arith.constant 0 : index
    %extracted = tensor.extract %8[%c0_4] : tensor<2xindex>
    %alloc_5 = memref.alloc(%extracted) : memref<?x4xf32>
    "lmhlo_disc.h2d"(%reinterpret_cast, %alloc_5) : (memref<?x4xf32>, memref<?x4xf32>) -> ()
    %c4_6 = arith.constant 4 : index
    %9 = arith.muli %c4_6, %dim : index
    %reinterpret_cast_7 = memref.reinterpret_cast %alloc_5 to offset: [0], sizes: [%dim, 4], strides: [4, 1] {kDiscSymbolicDimAttr = [@S0, @C4]} : memref<?x4xf32> to memref<?x4xf32>
    %10 = bufferization.to_tensor %reinterpret_cast_7 : memref<?x4xf32>
    %11 = bufferization.to_memref %10 : memref<?x4xf32>
    %12 = bufferization.to_tensor %11 : memref<?x4xf32>
    %13 = bufferization.to_tensor %6 : memref<2xindex>
    %c0_8 = arith.constant 0 : index
    %extracted_9 = tensor.extract %13[%c0_8] : tensor<2xindex>
    %alloc_10 = memref.alloc(%extracted_9) : memref<?x4xf32>
    "lmhlo.dynamic_broadcast_in_dim"(%11, %6, %alloc_10) {broadcast_dimensions = dense<[0, 1]> : tensor<2xi64>, disc.device = "gpu"} : (memref<?x4xf32>, memref<2xindex>, memref<?x4xf32>) -> ()
    %14 = bufferization.to_tensor %alloc_10 : memref<?x4xf32>
    %15 = bufferization.to_memref %14 : memref<?x4xf32>
    %c4_11 = arith.constant 4 : index
    %16 = arith.muli %c4_11, %5 : index
    %reinterpret_cast_12 = memref.reinterpret_cast %15 to offset: [0], sizes: [%5, 4], strides: [4, 1] {kDiscSymbolicDimAttr = [@S2, @C4]} : memref<?x4xf32> to memref<?x4xf32>
    %17 = bufferization.to_tensor %reinterpret_cast_12 : memref<?x4xf32>
    %18 = bufferization.to_memref %17 : memref<?x4xf32>
    %19 = bufferization.to_tensor %reinterpret_cast_3 : memref<?x4xf32>
    %20 = shape.shape_of %19 : tensor<?x4xf32> -> tensor<2xindex>
    %c0_13 = arith.constant 0 : index
    %extracted_14 = tensor.extract %20[%c0_13] : tensor<2xindex>
    %alloc_15 = memref.alloc(%extracted_14) : memref<?x4xf32>
    "lmhlo_disc.h2d"(%reinterpret_cast_3, %alloc_15) : (memref<?x4xf32>, memref<?x4xf32>) -> ()
    %c4_16 = arith.constant 4 : index
    %21 = arith.muli %c4_16, %dim_1 : index
    %reinterpret_cast_17 = memref.reinterpret_cast %alloc_15 to offset: [0], sizes: [%dim_1, 4], strides: [4, 1] {kDiscSymbolicDimAttr = [@S1, @C4]} : memref<?x4xf32> to memref<?x4xf32>
    %22 = bufferization.to_tensor %reinterpret_cast_17 : memref<?x4xf32>
    %23 = bufferization.to_memref %22 : memref<?x4xf32>
    %24 = bufferization.to_tensor %23 : memref<?x4xf32>
    %25 = bufferization.to_tensor %6 : memref<2xindex>
    %c0_18 = arith.constant 0 : index
    %extracted_19 = tensor.extract %25[%c0_18] : tensor<2xindex>
    %alloc_20 = memref.alloc(%extracted_19) : memref<?x4xf32>
    "lmhlo.dynamic_broadcast_in_dim"(%23, %6, %alloc_20) {broadcast_dimensions = dense<[0, 1]> : tensor<2xi64>, disc.device = "gpu"} : (memref<?x4xf32>, memref<2xindex>, memref<?x4xf32>) -> ()
    %26 = bufferization.to_tensor %alloc_20 : memref<?x4xf32>
    %27 = bufferization.to_memref %26 : memref<?x4xf32>
    %c4_21 = arith.constant 4 : index
    %28 = arith.muli %c4_21, %5 : index
    %reinterpret_cast_22 = memref.reinterpret_cast %27 to offset: [0], sizes: [%5, 4], strides: [4, 1] {kDiscSymbolicDimAttr = [@S2, @C4]} : memref<?x4xf32> to memref<?x4xf32>
    %29 = bufferization.to_tensor %reinterpret_cast_22 : memref<?x4xf32>
    %30 = bufferization.to_memref %29 : memref<?x4xf32>
    %31 = bufferization.to_tensor %18 : memref<?x4xf32>
    %32 = bufferization.to_tensor %30 : memref<?x4xf32>
    %33 = shape.shape_of %31 : tensor<?x4xf32> -> tensor<2xindex>
    %c0_23 = arith.constant 0 : index
    %extracted_24 = tensor.extract %33[%c0_23] : tensor<2xindex>
    %alloc_25 = memref.alloc(%extracted_24) : memref<?x4xf32>
    "lmhlo.multiply"(%18, %30, %alloc_25) {disc.device = "gpu"} : (memref<?x4xf32>, memref<?x4xf32>, memref<?x4xf32>) -> ()
    %34 = bufferization.to_tensor %alloc_25 : memref<?x4xf32>
    %35 = bufferization.to_memref %34 : memref<?x4xf32>
    %c4_26 = arith.constant 4 : index
    %36 = arith.muli %c4_26, %5 : index
    %reinterpret_cast_27 = memref.reinterpret_cast %35 to offset: [0], sizes: [%5, 4], strides: [4, 1] {kDiscSymbolicDimAttr = [@S2, @C4]} : memref<?x4xf32> to memref<?x4xf32>
    %37 = bufferization.to_tensor %reinterpret_cast_27 : memref<?x4xf32>
    %38 = bufferization.to_memref %37 : memref<?x4xf32>
    %39 = arith.index_cast %5 : index to i32
    %40 = arith.muli %39, %c4_i32 : i32
    %from_elements_28 = tensor.from_elements %40, %c1_i32 {disc.shape_op = true} : tensor<2xi32>
    %41 = bufferization.to_memref %from_elements_28 : memref<2xi32>
    %42 = arith.index_cast %40 : i32 to index
    %43 = bufferization.to_tensor %38 : memref<?x4xf32>
    %44 = bufferization.to_tensor %41 : memref<2xi32>
    %45 = arith.index_cast %44 : tensor<2xi32> to tensor<2xindex>
    %c0_29 = arith.constant 0 : index
    %extracted_30 = tensor.extract %45[%c0_29] : tensor<2xindex>
    %alloc_31 = memref.alloc(%extracted_30) : memref<?x1xf32>
    "lmhlo.dynamic_reshape"(%38, %41, %alloc_31) {disc.device = "gpu"} : (memref<?x4xf32>, memref<2xi32>, memref<?x1xf32>) -> ()
    %46 = bufferization.to_tensor %alloc_31 : memref<?x1xf32>
    %47 = bufferization.to_memref %46 : memref<?x1xf32>
    %c1_32 = arith.constant 1 : index
    %48 = arith.muli %c1_32, %42 : index
    %reinterpret_cast_33 = memref.reinterpret_cast %47 to offset: [0], sizes: [%42, 1], strides: [1, 1] {kDiscSymbolicDimAttr = [@S3, @C1]} : memref<?x1xf32> to memref<?x1xf32>
    %49 = bufferization.to_tensor %reinterpret_cast_33 : memref<?x1xf32>
    %50 = bufferization.to_memref %49 : memref<?x1xf32>
    %alloc_34 = memref.alloc() : memref<1xf32>
    "lmhlo.reduce"(%50, %alloc, %alloc_34) ({
    ^bb0(%arg2: memref<f32>, %arg3: memref<f32>, %arg4: memref<f32>):
      %alloc_37 = memref.alloc() : memref<f32>
      "lmhlo.add"(%arg2, %arg3, %alloc_37) {disc.device = "gpu"} : (memref<f32>, memref<f32>, memref<f32>) -> ()
      "lmhlo.copy"(%alloc_37, %arg4) : (memref<f32>, memref<f32>) -> ()
      "lmhlo.terminator"() : () -> ()
    }) {dimensions = dense<0> : tensor<1xi64>, disc.device = "gpu"} : (memref<?x1xf32>, memref<f32>, memref<1xf32>) -> ()
    %alloc_35 = memref.alloc() : memref<f32>
    "lmhlo.reshape"(%alloc_34, %alloc_35) {disc.device = "gpu"} : (memref<1xf32>, memref<f32>) -> ()
    %51 = bufferization.to_tensor %alloc_35 : memref<f32>
    %52 = bufferization.to_memref %51 : memref<f32>
    %alloc_36 = memref.alloc() : memref<f32>
    "lmhlo_disc.d2h"(%52, %alloc_36) {disc.device = "cpu"} : (memref<f32>, memref<f32>) -> ()
    return %alloc_36 : memref<f32>
  }
  "disc_shape.SymbolicDim"() {knownNegativeOne = false, knownNonNegative = true, knownNonSizeOne = false, knownNonSizeZero = false, sym_name = "S0", value = -9223372036854775808 : i64} : () -> ()
  "disc_shape.SymbolicDim"() {knownNegativeOne = false, knownNonNegative = true, knownNonSizeOne = true, knownNonSizeZero = true, sym_name = "C4", value = 4 : i64} : () -> ()
  "disc_shape.SymbolicDim"() {knownNegativeOne = false, knownNonNegative = true, knownNonSizeOne = false, knownNonSizeZero = false, sym_name = "S1", value = -9223372036854775808 : i64} : () -> ()
  "disc_shape.SymbolicDim"() {knownNegativeOne = false, knownNonNegative = true, knownNonSizeOne = false, knownNonSizeZero = false, sym_name = "S2", value = -9223372036854775808 : i64} : () -> ()
  "disc_shape.SymbolicDim"() {knownNegativeOne = false, knownNonNegative = true, knownNonSizeOne = false, knownNonSizeZero = true, sym_name = "C1", value = 1 : i64} : () -> ()
  "disc_shape.SymbolicDim"() {knownNegativeOne = false, knownNonNegative = true, knownNonSizeOne = true, knownNonSizeZero = false, sym_name = "S3", value = -9223372036854775808 : i64} : () -> ()
  func.func @shape_constraint_graph() {
    %c4 = arith.constant 4 : index
    %0 = "disc_shape.dim"() {name = @S2} : () -> index
    %1 = "disc_shape.dim"() {name = @S3} : () -> index
    "disc_shape.tie_product_equal"(%c4, %0, %1) {operand_segment_sizes = array<i32: 2, 1>} : (index, index, index) -> ()
    return
  }
}


// -----// IR Dump After Canonicalizer (canonicalize) //----- //
func.func @main(%arg0: memref<?x4xf32>, %arg1: memref<?x4xf32>) -> memref<f32> attributes {tf.entry_function = {input_placements = "cpu,cpu", inputs = "arg0,arg1", output_placements = "cpu", outputs = "out0"}} {
  %c1_i32 = arith.constant 1 : i32
  %c4_i32 = arith.constant 4 : i32
  %c1 = arith.constant 1 : index
  %c0 = arith.constant 0 : index
  %c4 = arith.constant 4 : index
  %alloc = memref.alloc() : memref<f32>
  "lmhlo.constant"(%alloc) {disc.device = "gpu", value = dense<0.000000e+00> : tensor<f32>} : (memref<f32>) -> ()
  %dim = memref.dim %arg0, %c0 : memref<?x4xf32>
  %reinterpret_cast = memref.reinterpret_cast %arg0 to offset: [0], sizes: [%dim, 4], strides: [4, 1] {kDiscSymbolicDimAttr = [@S0, @C4]} : memref<?x4xf32> to memref<?x4xf32>
  %dim_0 = memref.dim %arg1, %c0 : memref<?x4xf32>
  %reinterpret_cast_1 = memref.reinterpret_cast %arg1 to offset: [0], sizes: [%dim_0, 4], strides: [4, 1] {kDiscSymbolicDimAttr = [@S1, @C4]} : memref<?x4xf32> to memref<?x4xf32>
  %0 = arith.cmpi eq, %dim_0, %c1 : index
  %1 = arith.select %0, %dim, %dim_0 : index
  %from_elements = tensor.from_elements %1, %c4 {disc.shape_op = true} : tensor<2xindex>
  %2 = bufferization.to_memref %from_elements : memref<2xindex>
  %alloc_2 = memref.alloc(%dim) : memref<?x4xf32>
  "lmhlo_disc.h2d"(%reinterpret_cast, %alloc_2) : (memref<?x4xf32>, memref<?x4xf32>) -> ()
  %reinterpret_cast_3 = memref.reinterpret_cast %alloc_2 to offset: [0], sizes: [%dim, 4], strides: [4, 1] {kDiscSymbolicDimAttr = [@S0, @C4]} : memref<?x4xf32> to memref<?x4xf32>
  %3 = bufferization.to_tensor %2 : memref<2xindex>
  %extracted = tensor.extract %3[%c0] : tensor<2xindex>
  %alloc_4 = memref.alloc(%extracted) : memref<?x4xf32>
  "lmhlo.dynamic_broadcast_in_dim"(%reinterpret_cast_3, %2, %alloc_4) {broadcast_dimensions = dense<[0, 1]> : tensor<2xi64>, disc.device = "gpu"} : (memref<?x4xf32>, memref<2xindex>, memref<?x4xf32>) -> ()
  %reinterpret_cast_5 = memref.reinterpret_cast %alloc_4 to offset: [0], sizes: [%1, 4], strides: [4, 1] {kDiscSymbolicDimAttr = [@S2, @C4]} : memref<?x4xf32> to memref<?x4xf32>
  %alloc_6 = memref.alloc(%dim_0) : memref<?x4xf32>
  "lmhlo_disc.h2d"(%reinterpret_cast_1, %alloc_6) : (memref<?x4xf32>, memref<?x4xf32>) -> ()
  %reinterpret_cast_7 = memref.reinterpret_cast %alloc_6 to offset: [0], sizes: [%dim_0, 4], strides: [4, 1] {kDiscSymbolicDimAttr = [@S1, @C4]} : memref<?x4xf32> to memref<?x4xf32>
  %4 = bufferization.to_tensor %2 : memref<2xindex>
  %extracted_8 = tensor.extract %4[%c0] : tensor<2xindex>
  %alloc_9 = memref.alloc(%extracted_8) : memref<?x4xf32>
  "lmhlo.dynamic_broadcast_in_dim"(%reinterpret_cast_7, %2, %alloc_9) {broadcast_dimensions = dense<[0, 1]> : tensor<2xi64>, disc.device = "gpu"} : (memref<?x4xf32>, memref<2xindex>, memref<?x4xf32>) -> ()
  %reinterpret_cast_10 = memref.reinterpret_cast %alloc_9 to offset: [0], sizes: [%1, 4], strides: [4, 1] {kDiscSymbolicDimAttr = [@S2, @C4]} : memref<?x4xf32> to memref<?x4xf32>
  %alloc_11 = memref.alloc(%1) : memref<?x4xf32>
  "lmhlo.multiply"(%reinterpret_cast_5, %reinterpret_cast_10, %alloc_11) {disc.device = "gpu"} : (memref<?x4xf32>, memref<?x4xf32>, memref<?x4xf32>) -> ()
  %reinterpret_cast_12 = memref.reinterpret_cast %alloc_11 to offset: [0], sizes: [%1, 4], strides: [4, 1] {kDiscSymbolicDimAttr = [@S2, @C4]} : memref<?x4xf32> to memref<?x4xf32>
  %5 = arith.index_cast %1 : index to i32
  %6 = arith.muli %5, %c4_i32 : i32
  %from_elements_13 = tensor.from_elements %6, %c1_i32 {disc.shape_op = true} : tensor<2xi32>
  %7 = bufferization.to_memref %from_elements_13 : memref<2xi32>
  %8 = arith.index_cast %6 : i32 to index
  %9 = bufferization.to_tensor %7 : memref<2xi32>
  %extracted_14 = tensor.extract %9[%c0] : tensor<2xi32>
  %10 = arith.index_cast %extracted_14 : i32 to index
  %alloc_15 = memref.alloc(%10) : memref<?x1xf32>
  "lmhlo.dynamic_reshape"(%reinterpret_cast_12, %7, %alloc_15) {disc.device = "gpu"} : (memref<?x4xf32>, memref<2xi32>, memref<?x1xf32>) -> ()
  %reinterpret_cast_16 = memref.reinterpret_cast %alloc_15 to offset: [0], sizes: [%8, 1], strides: [1, 1] {kDiscSymbolicDimAttr = [@S3, @C1]} : memref<?x1xf32> to memref<?x1xf32>
  %alloc_17 = memref.alloc() : memref<1xf32>
  "lmhlo.reduce"(%reinterpret_cast_16, %alloc, %alloc_17) ({
  ^bb0(%arg2: memref<f32>, %arg3: memref<f32>, %arg4: memref<f32>):
    "lmhlo.add"(%arg2, %arg3, %arg4) {disc.device = "gpu"} : (memref<f32>, memref<f32>, memref<f32>) -> ()
    "lmhlo.terminator"() : () -> ()
  }) {dimensions = dense<0> : tensor<1xi64>, disc.device = "gpu"} : (memref<?x1xf32>, memref<f32>, memref<1xf32>) -> ()
  %alloc_18 = memref.alloc() : memref<f32>
  "lmhlo.reshape"(%alloc_17, %alloc_18) {disc.device = "gpu"} : (memref<1xf32>, memref<f32>) -> ()
  %alloc_19 = memref.alloc() : memref<f32>
  "lmhlo_disc.d2h"(%alloc_18, %alloc_19) {disc.device = "cpu"} : (memref<f32>, memref<f32>) -> ()
  return %alloc_19 : memref<f32>
}

// -----// IR Dump After LegalizeToTensorOpPass (lhlo-legalize-to-tensor-op) //----- //
func.func @main(%arg0: memref<?x4xf32>, %arg1: memref<?x4xf32>) -> memref<f32> attributes {tf.entry_function = {input_placements = "cpu,cpu", inputs = "arg0,arg1", output_placements = "cpu", outputs = "out0"}} {
  %c1_i32 = arith.constant 1 : i32
  %c4_i32 = arith.constant 4 : i32
  %c1 = arith.constant 1 : index
  %c0 = arith.constant 0 : index
  %c4 = arith.constant 4 : index
  %alloc = memref.alloc() : memref<f32>
  "lmhlo.constant"(%alloc) {disc.device = "gpu", value = dense<0.000000e+00> : tensor<f32>} : (memref<f32>) -> ()
  %dim = memref.dim %arg0, %c0 : memref<?x4xf32>
  %reinterpret_cast = memref.reinterpret_cast %arg0 to offset: [0], sizes: [%dim, 4], strides: [4, 1] {kDiscSymbolicDimAttr = [@S0, @C4]} : memref<?x4xf32> to memref<?x4xf32>
  %dim_0 = memref.dim %arg1, %c0 : memref<?x4xf32>
  %reinterpret_cast_1 = memref.reinterpret_cast %arg1 to offset: [0], sizes: [%dim_0, 4], strides: [4, 1] {kDiscSymbolicDimAttr = [@S1, @C4]} : memref<?x4xf32> to memref<?x4xf32>
  %0 = arith.cmpi eq, %dim_0, %c1 : index
  %1 = arith.select %0, %dim, %dim_0 : index
  %from_elements = tensor.from_elements %1, %c4 {disc.shape_op = true} : tensor<2xindex>
  %2 = bufferization.to_memref %from_elements : memref<2xindex>
  %alloc_2 = memref.alloc(%dim) : memref<?x4xf32>
  "lmhlo_disc.h2d"(%reinterpret_cast, %alloc_2) : (memref<?x4xf32>, memref<?x4xf32>) -> ()
  %reinterpret_cast_3 = memref.reinterpret_cast %alloc_2 to offset: [0], sizes: [%dim, 4], strides: [4, 1] {kDiscSymbolicDimAttr = [@S0, @C4]} : memref<?x4xf32> to memref<?x4xf32>
  %3 = memref.load %2[%c0] : memref<2xindex>
  %alloc_4 = memref.alloc(%3) : memref<?x4xf32>
  "lmhlo.dynamic_broadcast_in_dim"(%reinterpret_cast_3, %2, %alloc_4) {broadcast_dimensions = dense<[0, 1]> : tensor<2xi64>, disc.device = "gpu"} : (memref<?x4xf32>, memref<2xindex>, memref<?x4xf32>) -> ()
  %reinterpret_cast_5 = memref.reinterpret_cast %alloc_4 to offset: [0], sizes: [%1, 4], strides: [4, 1] {kDiscSymbolicDimAttr = [@S2, @C4]} : memref<?x4xf32> to memref<?x4xf32>
  %alloc_6 = memref.alloc(%dim_0) : memref<?x4xf32>
  "lmhlo_disc.h2d"(%reinterpret_cast_1, %alloc_6) : (memref<?x4xf32>, memref<?x4xf32>) -> ()
  %reinterpret_cast_7 = memref.reinterpret_cast %alloc_6 to offset: [0], sizes: [%dim_0, 4], strides: [4, 1] {kDiscSymbolicDimAttr = [@S1, @C4]} : memref<?x4xf32> to memref<?x4xf32>
  %4 = memref.load %2[%c0] : memref<2xindex>
  %alloc_8 = memref.alloc(%4) : memref<?x4xf32>
  "lmhlo.dynamic_broadcast_in_dim"(%reinterpret_cast_7, %2, %alloc_8) {broadcast_dimensions = dense<[0, 1]> : tensor<2xi64>, disc.device = "gpu"} : (memref<?x4xf32>, memref<2xindex>, memref<?x4xf32>) -> ()
  %reinterpret_cast_9 = memref.reinterpret_cast %alloc_8 to offset: [0], sizes: [%1, 4], strides: [4, 1] {kDiscSymbolicDimAttr = [@S2, @C4]} : memref<?x4xf32> to memref<?x4xf32>
  %alloc_10 = memref.alloc(%1) : memref<?x4xf32>
  "lmhlo.multiply"(%reinterpret_cast_5, %reinterpret_cast_9, %alloc_10) {disc.device = "gpu"} : (memref<?x4xf32>, memref<?x4xf32>, memref<?x4xf32>) -> ()
  %reinterpret_cast_11 = memref.reinterpret_cast %alloc_10 to offset: [0], sizes: [%1, 4], strides: [4, 1] {kDiscSymbolicDimAttr = [@S2, @C4]} : memref<?x4xf32> to memref<?x4xf32>
  %5 = arith.index_cast %1 : index to i32
  %6 = arith.muli %5, %c4_i32 : i32
  %from_elements_12 = tensor.from_elements %6, %c1_i32 {disc.shape_op = true} : tensor<2xi32>
  %7 = bufferization.to_memref %from_elements_12 : memref<2xi32>
  %8 = arith.index_cast %6 : i32 to index
  %9 = memref.load %7[%c0] : memref<2xi32>
  %10 = arith.index_cast %9 : i32 to index
  %alloc_13 = memref.alloc(%10) : memref<?x1xf32>
  "lmhlo.dynamic_reshape"(%reinterpret_cast_11, %7, %alloc_13) {disc.device = "gpu"} : (memref<?x4xf32>, memref<2xi32>, memref<?x1xf32>) -> ()
  %reinterpret_cast_14 = memref.reinterpret_cast %alloc_13 to offset: [0], sizes: [%8, 1], strides: [1, 1] {kDiscSymbolicDimAttr = [@S3, @C1]} : memref<?x1xf32> to memref<?x1xf32>
  %alloc_15 = memref.alloc() : memref<1xf32>
  "lmhlo.reduce"(%reinterpret_cast_14, %alloc, %alloc_15) ({
  ^bb0(%arg2: memref<f32>, %arg3: memref<f32>, %arg4: memref<f32>):
    "lmhlo.add"(%arg2, %arg3, %arg4) {disc.device = "gpu"} : (memref<f32>, memref<f32>, memref<f32>) -> ()
    "lmhlo.terminator"() : () -> ()
  }) {dimensions = dense<0> : tensor<1xi64>, disc.device = "gpu"} : (memref<?x1xf32>, memref<f32>, memref<1xf32>) -> ()
  %alloc_16 = memref.alloc() : memref<f32>
  "lmhlo.reshape"(%alloc_15, %alloc_16) {disc.device = "gpu"} : (memref<1xf32>, memref<f32>) -> ()
  %alloc_17 = memref.alloc() : memref<f32>
  "lmhlo_disc.d2h"(%alloc_16, %alloc_17) {disc.device = "cpu"} : (memref<f32>, memref<f32>) -> ()
  return %alloc_17 : memref<f32>
}

// -----// IR Dump After Canonicalizer (canonicalize) //----- //
func.func @main(%arg0: memref<?x4xf32>, %arg1: memref<?x4xf32>) -> memref<f32> attributes {tf.entry_function = {input_placements = "cpu,cpu", inputs = "arg0,arg1", output_placements = "cpu", outputs = "out0"}} {
  %c1_i32 = arith.constant 1 : i32
  %c4_i32 = arith.constant 4 : i32
  %c1 = arith.constant 1 : index
  %c0 = arith.constant 0 : index
  %c4 = arith.constant 4 : index
  %alloc = memref.alloc() : memref<f32>
  "lmhlo.constant"(%alloc) {disc.device = "gpu", value = dense<0.000000e+00> : tensor<f32>} : (memref<f32>) -> ()
  %dim = memref.dim %arg0, %c0 : memref<?x4xf32>
  %reinterpret_cast = memref.reinterpret_cast %arg0 to offset: [0], sizes: [%dim, 4], strides: [4, 1] {kDiscSymbolicDimAttr = [@S0, @C4]} : memref<?x4xf32> to memref<?x4xf32>
  %dim_0 = memref.dim %arg1, %c0 : memref<?x4xf32>
  %reinterpret_cast_1 = memref.reinterpret_cast %arg1 to offset: [0], sizes: [%dim_0, 4], strides: [4, 1] {kDiscSymbolicDimAttr = [@S1, @C4]} : memref<?x4xf32> to memref<?x4xf32>
  %0 = arith.cmpi eq, %dim_0, %c1 : index
  %1 = arith.select %0, %dim, %dim_0 : index
  %from_elements = tensor.from_elements %1, %c4 {disc.shape_op = true} : tensor<2xindex>
  %2 = bufferization.to_memref %from_elements : memref<2xindex>
  %alloc_2 = memref.alloc(%dim) : memref<?x4xf32>
  "lmhlo_disc.h2d"(%reinterpret_cast, %alloc_2) : (memref<?x4xf32>, memref<?x4xf32>) -> ()
  %reinterpret_cast_3 = memref.reinterpret_cast %alloc_2 to offset: [0], sizes: [%dim, 4], strides: [4, 1] {kDiscSymbolicDimAttr = [@S0, @C4]} : memref<?x4xf32> to memref<?x4xf32>
  %alloc_4 = memref.alloc(%1) : memref<?x4xf32>
  "lmhlo.dynamic_broadcast_in_dim"(%reinterpret_cast_3, %2, %alloc_4) {broadcast_dimensions = dense<[0, 1]> : tensor<2xi64>, disc.device = "gpu"} : (memref<?x4xf32>, memref<2xindex>, memref<?x4xf32>) -> ()
  %reinterpret_cast_5 = memref.reinterpret_cast %alloc_4 to offset: [0], sizes: [%1, 4], strides: [4, 1] {kDiscSymbolicDimAttr = [@S2, @C4]} : memref<?x4xf32> to memref<?x4xf32>
  %alloc_6 = memref.alloc(%dim_0) : memref<?x4xf32>
  "lmhlo_disc.h2d"(%reinterpret_cast_1, %alloc_6) : (memref<?x4xf32>, memref<?x4xf32>) -> ()
  %reinterpret_cast_7 = memref.reinterpret_cast %alloc_6 to offset: [0], sizes: [%dim_0, 4], strides: [4, 1] {kDiscSymbolicDimAttr = [@S1, @C4]} : memref<?x4xf32> to memref<?x4xf32>
  %alloc_8 = memref.alloc(%1) : memref<?x4xf32>
  "lmhlo.dynamic_broadcast_in_dim"(%reinterpret_cast_7, %2, %alloc_8) {broadcast_dimensions = dense<[0, 1]> : tensor<2xi64>, disc.device = "gpu"} : (memref<?x4xf32>, memref<2xindex>, memref<?x4xf32>) -> ()
  %reinterpret_cast_9 = memref.reinterpret_cast %alloc_8 to offset: [0], sizes: [%1, 4], strides: [4, 1] {kDiscSymbolicDimAttr = [@S2, @C4]} : memref<?x4xf32> to memref<?x4xf32>
  %alloc_10 = memref.alloc(%1) : memref<?x4xf32>
  "lmhlo.multiply"(%reinterpret_cast_5, %reinterpret_cast_9, %alloc_10) {disc.device = "gpu"} : (memref<?x4xf32>, memref<?x4xf32>, memref<?x4xf32>) -> ()
  %reinterpret_cast_11 = memref.reinterpret_cast %alloc_10 to offset: [0], sizes: [%1, 4], strides: [4, 1] {kDiscSymbolicDimAttr = [@S2, @C4]} : memref<?x4xf32> to memref<?x4xf32>
  %3 = arith.index_cast %1 : index to i32
  %4 = arith.muli %3, %c4_i32 : i32
  %from_elements_12 = tensor.from_elements %4, %c1_i32 {disc.shape_op = true} : tensor<2xi32>
  %5 = bufferization.to_memref %from_elements_12 : memref<2xi32>
  %6 = arith.index_cast %4 : i32 to index
  %7 = arith.index_cast %4 : i32 to index
  %alloc_13 = memref.alloc(%7) : memref<?x1xf32>
  "lmhlo.dynamic_reshape"(%reinterpret_cast_11, %5, %alloc_13) {disc.device = "gpu"} : (memref<?x4xf32>, memref<2xi32>, memref<?x1xf32>) -> ()
  %reinterpret_cast_14 = memref.reinterpret_cast %alloc_13 to offset: [0], sizes: [%6, 1], strides: [1, 1] {kDiscSymbolicDimAttr = [@S3, @C1]} : memref<?x1xf32> to memref<?x1xf32>
  %alloc_15 = memref.alloc() : memref<1xf32>
  "lmhlo.reduce"(%reinterpret_cast_14, %alloc, %alloc_15) ({
  ^bb0(%arg2: memref<f32>, %arg3: memref<f32>, %arg4: memref<f32>):
    "lmhlo.add"(%arg2, %arg3, %arg4) {disc.device = "gpu"} : (memref<f32>, memref<f32>, memref<f32>) -> ()
    "lmhlo.terminator"() : () -> ()
  }) {dimensions = dense<0> : tensor<1xi64>, disc.device = "gpu"} : (memref<?x1xf32>, memref<f32>, memref<1xf32>) -> ()
  %alloc_16 = memref.alloc() : memref<f32>
  "lmhlo.reshape"(%alloc_15, %alloc_16) {disc.device = "gpu"} : (memref<1xf32>, memref<f32>) -> ()
  %alloc_17 = memref.alloc() : memref<f32>
  "lmhlo_disc.d2h"(%alloc_16, %alloc_17) {disc.device = "cpu"} : (memref<f32>, memref<f32>) -> ()
  return %alloc_17 : memref<f32>
}

// -----// IR Dump After TensorBufferize (tensor-bufferize) //----- //
func.func @main(%arg0: memref<?x4xf32>, %arg1: memref<?x4xf32>) -> memref<f32> attributes {tf.entry_function = {input_placements = "cpu,cpu", inputs = "arg0,arg1", output_placements = "cpu", outputs = "out0"}} {
  %c1_i32 = arith.constant 1 : i32
  %c4_i32 = arith.constant 4 : i32
  %c1 = arith.constant 1 : index
  %c0 = arith.constant 0 : index
  %c4 = arith.constant 4 : index
  %alloc = memref.alloc() : memref<f32>
  "lmhlo.constant"(%alloc) {disc.device = "gpu", value = dense<0.000000e+00> : tensor<f32>} : (memref<f32>) -> ()
  %dim = memref.dim %arg0, %c0 : memref<?x4xf32>
  %reinterpret_cast = memref.reinterpret_cast %arg0 to offset: [0], sizes: [%dim, 4], strides: [4, 1] {kDiscSymbolicDimAttr = [@S0, @C4]} : memref<?x4xf32> to memref<?x4xf32>
  %dim_0 = memref.dim %arg1, %c0 : memref<?x4xf32>
  %reinterpret_cast_1 = memref.reinterpret_cast %arg1 to offset: [0], sizes: [%dim_0, 4], strides: [4, 1] {kDiscSymbolicDimAttr = [@S1, @C4]} : memref<?x4xf32> to memref<?x4xf32>
  %0 = arith.cmpi eq, %dim_0, %c1 : index
  %1 = arith.select %0, %dim, %dim_0 : index
  %alloc_2 = memref.alloc() {alignment = 64 : i64} : memref<2xindex>
  %c0_3 = arith.constant 0 : index
  %c1_4 = arith.constant 1 : index
  memref.store %1, %alloc_2[%c0_3] : memref<2xindex>
  memref.store %c4, %alloc_2[%c1_4] : memref<2xindex>
  %alloc_5 = memref.alloc(%dim) : memref<?x4xf32>
  "lmhlo_disc.h2d"(%reinterpret_cast, %alloc_5) : (memref<?x4xf32>, memref<?x4xf32>) -> ()
  %reinterpret_cast_6 = memref.reinterpret_cast %alloc_5 to offset: [0], sizes: [%dim, 4], strides: [4, 1] {kDiscSymbolicDimAttr = [@S0, @C4]} : memref<?x4xf32> to memref<?x4xf32>
  %alloc_7 = memref.alloc(%1) : memref<?x4xf32>
  "lmhlo.dynamic_broadcast_in_dim"(%reinterpret_cast_6, %alloc_2, %alloc_7) {broadcast_dimensions = dense<[0, 1]> : tensor<2xi64>, disc.device = "gpu"} : (memref<?x4xf32>, memref<2xindex>, memref<?x4xf32>) -> ()
  %reinterpret_cast_8 = memref.reinterpret_cast %alloc_7 to offset: [0], sizes: [%1, 4], strides: [4, 1] {kDiscSymbolicDimAttr = [@S2, @C4]} : memref<?x4xf32> to memref<?x4xf32>
  %alloc_9 = memref.alloc(%dim_0) : memref<?x4xf32>
  "lmhlo_disc.h2d"(%reinterpret_cast_1, %alloc_9) : (memref<?x4xf32>, memref<?x4xf32>) -> ()
  %reinterpret_cast_10 = memref.reinterpret_cast %alloc_9 to offset: [0], sizes: [%dim_0, 4], strides: [4, 1] {kDiscSymbolicDimAttr = [@S1, @C4]} : memref<?x4xf32> to memref<?x4xf32>
  %alloc_11 = memref.alloc(%1) : memref<?x4xf32>
  "lmhlo.dynamic_broadcast_in_dim"(%reinterpret_cast_10, %alloc_2, %alloc_11) {broadcast_dimensions = dense<[0, 1]> : tensor<2xi64>, disc.device = "gpu"} : (memref<?x4xf32>, memref<2xindex>, memref<?x4xf32>) -> ()
  %reinterpret_cast_12 = memref.reinterpret_cast %alloc_11 to offset: [0], sizes: [%1, 4], strides: [4, 1] {kDiscSymbolicDimAttr = [@S2, @C4]} : memref<?x4xf32> to memref<?x4xf32>
  %alloc_13 = memref.alloc(%1) : memref<?x4xf32>
  "lmhlo.multiply"(%reinterpret_cast_8, %reinterpret_cast_12, %alloc_13) {disc.device = "gpu"} : (memref<?x4xf32>, memref<?x4xf32>, memref<?x4xf32>) -> ()
  %reinterpret_cast_14 = memref.reinterpret_cast %alloc_13 to offset: [0], sizes: [%1, 4], strides: [4, 1] {kDiscSymbolicDimAttr = [@S2, @C4]} : memref<?x4xf32> to memref<?x4xf32>
  %2 = arith.index_cast %1 : index to i32
  %3 = arith.muli %2, %c4_i32 : i32
  %alloc_15 = memref.alloc() {alignment = 64 : i64} : memref<2xi32>
  %c0_16 = arith.constant 0 : index
  %c1_17 = arith.constant 1 : index
  memref.store %3, %alloc_15[%c0_16] : memref<2xi32>
  memref.store %c1_i32, %alloc_15[%c1_17] : memref<2xi32>
  %4 = arith.index_cast %3 : i32 to index
  %5 = arith.index_cast %3 : i32 to index
  %alloc_18 = memref.alloc(%5) : memref<?x1xf32>
  "lmhlo.dynamic_reshape"(%reinterpret_cast_14, %alloc_15, %alloc_18) {disc.device = "gpu"} : (memref<?x4xf32>, memref<2xi32>, memref<?x1xf32>) -> ()
  %reinterpret_cast_19 = memref.reinterpret_cast %alloc_18 to offset: [0], sizes: [%4, 1], strides: [1, 1] {kDiscSymbolicDimAttr = [@S3, @C1]} : memref<?x1xf32> to memref<?x1xf32>
  %alloc_20 = memref.alloc() : memref<1xf32>
  "lmhlo.reduce"(%reinterpret_cast_19, %alloc, %alloc_20) ({
  ^bb0(%arg2: memref<f32>, %arg3: memref<f32>, %arg4: memref<f32>):
    "lmhlo.add"(%arg2, %arg3, %arg4) {disc.device = "gpu"} : (memref<f32>, memref<f32>, memref<f32>) -> ()
    "lmhlo.terminator"() : () -> ()
  }) {dimensions = dense<0> : tensor<1xi64>, disc.device = "gpu"} : (memref<?x1xf32>, memref<f32>, memref<1xf32>) -> ()
  %alloc_21 = memref.alloc() : memref<f32>
  "lmhlo.reshape"(%alloc_20, %alloc_21) {disc.device = "gpu"} : (memref<1xf32>, memref<f32>) -> ()
  %alloc_22 = memref.alloc() : memref<f32>
  "lmhlo_disc.d2h"(%alloc_21, %alloc_22) {disc.device = "cpu"} : (memref<f32>, memref<f32>) -> ()
  return %alloc_22 : memref<f32>
}

// -----// IR Dump After Canonicalizer (canonicalize) //----- //
func.func @main(%arg0: memref<?x4xf32>, %arg1: memref<?x4xf32>) -> memref<f32> attributes {tf.entry_function = {input_placements = "cpu,cpu", inputs = "arg0,arg1", output_placements = "cpu", outputs = "out0"}} {
  %c1_i32 = arith.constant 1 : i32
  %c4_i32 = arith.constant 4 : i32
  %c1 = arith.constant 1 : index
  %c0 = arith.constant 0 : index
  %c4 = arith.constant 4 : index
  %alloc = memref.alloc() : memref<f32>
  "lmhlo.constant"(%alloc) {disc.device = "gpu", value = dense<0.000000e+00> : tensor<f32>} : (memref<f32>) -> ()
  %dim = memref.dim %arg0, %c0 : memref<?x4xf32>
  %reinterpret_cast = memref.reinterpret_cast %arg0 to offset: [0], sizes: [%dim, 4], strides: [4, 1] {kDiscSymbolicDimAttr = [@S0, @C4]} : memref<?x4xf32> to memref<?x4xf32>
  %dim_0 = memref.dim %arg1, %c0 : memref<?x4xf32>
  %reinterpret_cast_1 = memref.reinterpret_cast %arg1 to offset: [0], sizes: [%dim_0, 4], strides: [4, 1] {kDiscSymbolicDimAttr = [@S1, @C4]} : memref<?x4xf32> to memref<?x4xf32>
  %0 = arith.cmpi eq, %dim_0, %c1 : index
  %1 = arith.select %0, %dim, %dim_0 : index
  %alloc_2 = memref.alloc() {alignment = 64 : i64} : memref<2xindex>
  memref.store %1, %alloc_2[%c0] : memref<2xindex>
  memref.store %c4, %alloc_2[%c1] : memref<2xindex>
  %alloc_3 = memref.alloc(%dim) : memref<?x4xf32>
  "lmhlo_disc.h2d"(%reinterpret_cast, %alloc_3) : (memref<?x4xf32>, memref<?x4xf32>) -> ()
  %reinterpret_cast_4 = memref.reinterpret_cast %alloc_3 to offset: [0], sizes: [%dim, 4], strides: [4, 1] {kDiscSymbolicDimAttr = [@S0, @C4]} : memref<?x4xf32> to memref<?x4xf32>
  %alloc_5 = memref.alloc(%1) : memref<?x4xf32>
  "lmhlo.dynamic_broadcast_in_dim"(%reinterpret_cast_4, %alloc_2, %alloc_5) {broadcast_dimensions = dense<[0, 1]> : tensor<2xi64>, disc.device = "gpu"} : (memref<?x4xf32>, memref<2xindex>, memref<?x4xf32>) -> ()
  %reinterpret_cast_6 = memref.reinterpret_cast %alloc_5 to offset: [0], sizes: [%1, 4], strides: [4, 1] {kDiscSymbolicDimAttr = [@S2, @C4]} : memref<?x4xf32> to memref<?x4xf32>
  %alloc_7 = memref.alloc(%dim_0) : memref<?x4xf32>
  "lmhlo_disc.h2d"(%reinterpret_cast_1, %alloc_7) : (memref<?x4xf32>, memref<?x4xf32>) -> ()
  %reinterpret_cast_8 = memref.reinterpret_cast %alloc_7 to offset: [0], sizes: [%dim_0, 4], strides: [4, 1] {kDiscSymbolicDimAttr = [@S1, @C4]} : memref<?x4xf32> to memref<?x4xf32>
  %alloc_9 = memref.alloc(%1) : memref<?x4xf32>
  "lmhlo.dynamic_broadcast_in_dim"(%reinterpret_cast_8, %alloc_2, %alloc_9) {broadcast_dimensions = dense<[0, 1]> : tensor<2xi64>, disc.device = "gpu"} : (memref<?x4xf32>, memref<2xindex>, memref<?x4xf32>) -> ()
  %reinterpret_cast_10 = memref.reinterpret_cast %alloc_9 to offset: [0], sizes: [%1, 4], strides: [4, 1] {kDiscSymbolicDimAttr = [@S2, @C4]} : memref<?x4xf32> to memref<?x4xf32>
  %alloc_11 = memref.alloc(%1) : memref<?x4xf32>
  "lmhlo.multiply"(%reinterpret_cast_6, %reinterpret_cast_10, %alloc_11) {disc.device = "gpu"} : (memref<?x4xf32>, memref<?x4xf32>, memref<?x4xf32>) -> ()
  %reinterpret_cast_12 = memref.reinterpret_cast %alloc_11 to offset: [0], sizes: [%1, 4], strides: [4, 1] {kDiscSymbolicDimAttr = [@S2, @C4]} : memref<?x4xf32> to memref<?x4xf32>
  %2 = arith.index_cast %1 : index to i32
  %3 = arith.muli %2, %c4_i32 : i32
  %alloc_13 = memref.alloc() {alignment = 64 : i64} : memref<2xi32>
  memref.store %3, %alloc_13[%c0] : memref<2xi32>
  memref.store %c1_i32, %alloc_13[%c1] : memref<2xi32>
  %4 = arith.index_cast %3 : i32 to index
  %5 = arith.index_cast %3 : i32 to index
  %alloc_14 = memref.alloc(%5) : memref<?x1xf32>
  "lmhlo.dynamic_reshape"(%reinterpret_cast_12, %alloc_13, %alloc_14) {disc.device = "gpu"} : (memref<?x4xf32>, memref<2xi32>, memref<?x1xf32>) -> ()
  %reinterpret_cast_15 = memref.reinterpret_cast %alloc_14 to offset: [0], sizes: [%4, 1], strides: [1, 1] {kDiscSymbolicDimAttr = [@S3, @C1]} : memref<?x1xf32> to memref<?x1xf32>
  %alloc_16 = memref.alloc() : memref<1xf32>
  "lmhlo.reduce"(%reinterpret_cast_15, %alloc, %alloc_16) ({
  ^bb0(%arg2: memref<f32>, %arg3: memref<f32>, %arg4: memref<f32>):
    "lmhlo.add"(%arg2, %arg3, %arg4) {disc.device = "gpu"} : (memref<f32>, memref<f32>, memref<f32>) -> ()
    "lmhlo.terminator"() : () -> ()
  }) {dimensions = dense<0> : tensor<1xi64>, disc.device = "gpu"} : (memref<?x1xf32>, memref<f32>, memref<1xf32>) -> ()
  %alloc_17 = memref.alloc() : memref<f32>
  "lmhlo.reshape"(%alloc_16, %alloc_17) {disc.device = "gpu"} : (memref<1xf32>, memref<f32>) -> ()
  %alloc_18 = memref.alloc() : memref<f32>
  "lmhlo_disc.d2h"(%alloc_17, %alloc_18) {disc.device = "cpu"} : (memref<f32>, memref<f32>) -> ()
  return %alloc_18 : memref<f32>
}

// -----// IR Dump After CSE (cse) //----- //
func.func @main(%arg0: memref<?x4xf32>, %arg1: memref<?x4xf32>) -> memref<f32> attributes {tf.entry_function = {input_placements = "cpu,cpu", inputs = "arg0,arg1", output_placements = "cpu", outputs = "out0"}} {
  %c1_i32 = arith.constant 1 : i32
  %c4_i32 = arith.constant 4 : i32
  %c1 = arith.constant 1 : index
  %c0 = arith.constant 0 : index
  %c4 = arith.constant 4 : index
  %alloc = memref.alloc() : memref<f32>
  "lmhlo.constant"(%alloc) {disc.device = "gpu", value = dense<0.000000e+00> : tensor<f32>} : (memref<f32>) -> ()
  %dim = memref.dim %arg0, %c0 : memref<?x4xf32>
  %reinterpret_cast = memref.reinterpret_cast %arg0 to offset: [0], sizes: [%dim, 4], strides: [4, 1] {kDiscSymbolicDimAttr = [@S0, @C4]} : memref<?x4xf32> to memref<?x4xf32>
  %dim_0 = memref.dim %arg1, %c0 : memref<?x4xf32>
  %reinterpret_cast_1 = memref.reinterpret_cast %arg1 to offset: [0], sizes: [%dim_0, 4], strides: [4, 1] {kDiscSymbolicDimAttr = [@S1, @C4]} : memref<?x4xf32> to memref<?x4xf32>
  %0 = arith.cmpi eq, %dim_0, %c1 : index
  %1 = arith.select %0, %dim, %dim_0 : index
  %alloc_2 = memref.alloc() {alignment = 64 : i64} : memref<2xindex>
  memref.store %1, %alloc_2[%c0] : memref<2xindex>
  memref.store %c4, %alloc_2[%c1] : memref<2xindex>
  %alloc_3 = memref.alloc(%dim) : memref<?x4xf32>
  "lmhlo_disc.h2d"(%reinterpret_cast, %alloc_3) : (memref<?x4xf32>, memref<?x4xf32>) -> ()
  %reinterpret_cast_4 = memref.reinterpret_cast %alloc_3 to offset: [0], sizes: [%dim, 4], strides: [4, 1] {kDiscSymbolicDimAttr = [@S0, @C4]} : memref<?x4xf32> to memref<?x4xf32>
  %alloc_5 = memref.alloc(%1) : memref<?x4xf32>
  "lmhlo.dynamic_broadcast_in_dim"(%reinterpret_cast_4, %alloc_2, %alloc_5) {broadcast_dimensions = dense<[0, 1]> : tensor<2xi64>, disc.device = "gpu"} : (memref<?x4xf32>, memref<2xindex>, memref<?x4xf32>) -> ()
  %reinterpret_cast_6 = memref.reinterpret_cast %alloc_5 to offset: [0], sizes: [%1, 4], strides: [4, 1] {kDiscSymbolicDimAttr = [@S2, @C4]} : memref<?x4xf32> to memref<?x4xf32>
  %alloc_7 = memref.alloc(%dim_0) : memref<?x4xf32>
  "lmhlo_disc.h2d"(%reinterpret_cast_1, %alloc_7) : (memref<?x4xf32>, memref<?x4xf32>) -> ()
  %reinterpret_cast_8 = memref.reinterpret_cast %alloc_7 to offset: [0], sizes: [%dim_0, 4], strides: [4, 1] {kDiscSymbolicDimAttr = [@S1, @C4]} : memref<?x4xf32> to memref<?x4xf32>
  %alloc_9 = memref.alloc(%1) : memref<?x4xf32>
  "lmhlo.dynamic_broadcast_in_dim"(%reinterpret_cast_8, %alloc_2, %alloc_9) {broadcast_dimensions = dense<[0, 1]> : tensor<2xi64>, disc.device = "gpu"} : (memref<?x4xf32>, memref<2xindex>, memref<?x4xf32>) -> ()
  %reinterpret_cast_10 = memref.reinterpret_cast %alloc_9 to offset: [0], sizes: [%1, 4], strides: [4, 1] {kDiscSymbolicDimAttr = [@S2, @C4]} : memref<?x4xf32> to memref<?x4xf32>
  %alloc_11 = memref.alloc(%1) : memref<?x4xf32>
  "lmhlo.multiply"(%reinterpret_cast_6, %reinterpret_cast_10, %alloc_11) {disc.device = "gpu"} : (memref<?x4xf32>, memref<?x4xf32>, memref<?x4xf32>) -> ()
  %reinterpret_cast_12 = memref.reinterpret_cast %alloc_11 to offset: [0], sizes: [%1, 4], strides: [4, 1] {kDiscSymbolicDimAttr = [@S2, @C4]} : memref<?x4xf32> to memref<?x4xf32>
  %2 = arith.index_cast %1 : index to i32
  %3 = arith.muli %2, %c4_i32 : i32
  %alloc_13 = memref.alloc() {alignment = 64 : i64} : memref<2xi32>
  memref.store %3, %alloc_13[%c0] : memref<2xi32>
  memref.store %c1_i32, %alloc_13[%c1] : memref<2xi32>
  %4 = arith.index_cast %3 : i32 to index
  %alloc_14 = memref.alloc(%4) : memref<?x1xf32>
  "lmhlo.dynamic_reshape"(%reinterpret_cast_12, %alloc_13, %alloc_14) {disc.device = "gpu"} : (memref<?x4xf32>, memref<2xi32>, memref<?x1xf32>) -> ()
  %reinterpret_cast_15 = memref.reinterpret_cast %alloc_14 to offset: [0], sizes: [%4, 1], strides: [1, 1] {kDiscSymbolicDimAttr = [@S3, @C1]} : memref<?x1xf32> to memref<?x1xf32>
  %alloc_16 = memref.alloc() : memref<1xf32>
  "lmhlo.reduce"(%reinterpret_cast_15, %alloc, %alloc_16) ({
  ^bb0(%arg2: memref<f32>, %arg3: memref<f32>, %arg4: memref<f32>):
    "lmhlo.add"(%arg2, %arg3, %arg4) {disc.device = "gpu"} : (memref<f32>, memref<f32>, memref<f32>) -> ()
    "lmhlo.terminator"() : () -> ()
  }) {dimensions = dense<0> : tensor<1xi64>, disc.device = "gpu"} : (memref<?x1xf32>, memref<f32>, memref<1xf32>) -> ()
  %alloc_17 = memref.alloc() : memref<f32>
  "lmhlo.reshape"(%alloc_16, %alloc_17) {disc.device = "gpu"} : (memref<1xf32>, memref<f32>) -> ()
  %alloc_18 = memref.alloc() : memref<f32>
  "lmhlo_disc.d2h"(%alloc_17, %alloc_18) {disc.device = "cpu"} : (memref<f32>, memref<f32>) -> ()
  return %alloc_18 : memref<f32>
}

// -----// IR Dump After DiscMemrefCanonicalizer (disc-memref-canonicalize) //----- //
func.func @main(%arg0: memref<?x4xf32>, %arg1: memref<?x4xf32>) -> memref<f32> attributes {tf.entry_function = {input_placements = "cpu,cpu", inputs = "arg0,arg1", output_placements = "cpu", outputs = "out0"}} {
  %c1_i32 = arith.constant 1 : i32
  %c4_i32 = arith.constant 4 : i32
  %c1 = arith.constant 1 : index
  %c0 = arith.constant 0 : index
  %c4 = arith.constant 4 : index
  %alloc = memref.alloc() : memref<f32>
  "lmhlo.constant"(%alloc) {disc.device = "gpu", value = dense<0.000000e+00> : tensor<f32>} : (memref<f32>) -> ()
  %dim = memref.dim %arg0, %c0 : memref<?x4xf32>
  %reinterpret_cast = memref.reinterpret_cast %arg0 to offset: [0], sizes: [%dim, 4], strides: [4, 1] {kDiscSymbolicDimAttr = [@S0, @C4]} : memref<?x4xf32> to memref<?x4xf32>
  %dim_0 = memref.dim %arg1, %c0 : memref<?x4xf32>
  %reinterpret_cast_1 = memref.reinterpret_cast %arg1 to offset: [0], sizes: [%dim_0, 4], strides: [4, 1] {kDiscSymbolicDimAttr = [@S1, @C4]} : memref<?x4xf32> to memref<?x4xf32>
  %0 = arith.cmpi eq, %dim_0, %c1 : index
  %1 = arith.select %0, %dim, %dim_0 : index
  %alloc_2 = memref.alloc() {alignment = 64 : i64} : memref<2xindex>
  memref.store %1, %alloc_2[%c0] : memref<2xindex>
  memref.store %c4, %alloc_2[%c1] : memref<2xindex>
  %alloc_3 = memref.alloc(%dim) {kDiscSymbolicDimAttr = [@S0, @C4]} : memref<?x4xf32>
  "lmhlo_disc.h2d"(%reinterpret_cast, %alloc_3) : (memref<?x4xf32>, memref<?x4xf32>) -> ()
  %alloc_4 = memref.alloc(%1) {kDiscSymbolicDimAttr = [@S2, @C4]} : memref<?x4xf32>
  "lmhlo.dynamic_broadcast_in_dim"(%alloc_3, %alloc_2, %alloc_4) {broadcast_dimensions = dense<[0, 1]> : tensor<2xi64>, disc.device = "gpu"} : (memref<?x4xf32>, memref<2xindex>, memref<?x4xf32>) -> ()
  %alloc_5 = memref.alloc(%dim_0) {kDiscSymbolicDimAttr = [@S1, @C4]} : memref<?x4xf32>
  "lmhlo_disc.h2d"(%reinterpret_cast_1, %alloc_5) : (memref<?x4xf32>, memref<?x4xf32>) -> ()
  %alloc_6 = memref.alloc(%1) {kDiscSymbolicDimAttr = [@S2, @C4]} : memref<?x4xf32>
  "lmhlo.dynamic_broadcast_in_dim"(%alloc_5, %alloc_2, %alloc_6) {broadcast_dimensions = dense<[0, 1]> : tensor<2xi64>, disc.device = "gpu"} : (memref<?x4xf32>, memref<2xindex>, memref<?x4xf32>) -> ()
  %alloc_7 = memref.alloc(%1) {kDiscSymbolicDimAttr = [@S2, @C4]} : memref<?x4xf32>
  "lmhlo.multiply"(%alloc_4, %alloc_6, %alloc_7) {disc.device = "gpu"} : (memref<?x4xf32>, memref<?x4xf32>, memref<?x4xf32>) -> ()
  %2 = arith.index_cast %1 : index to i32
  %3 = arith.muli %2, %c4_i32 : i32
  %alloc_8 = memref.alloc() {alignment = 64 : i64} : memref<2xi32>
  memref.store %3, %alloc_8[%c0] : memref<2xi32>
  memref.store %c1_i32, %alloc_8[%c1] : memref<2xi32>
  %4 = arith.index_cast %3 : i32 to index
  %alloc_9 = memref.alloc(%4) {kDiscSymbolicDimAttr = [@S3, @C1]} : memref<?x1xf32>
  "lmhlo.dynamic_reshape"(%alloc_7, %alloc_8, %alloc_9) {disc.device = "gpu"} : (memref<?x4xf32>, memref<2xi32>, memref<?x1xf32>) -> ()
  %alloc_10 = memref.alloc() : memref<1xf32>
  "lmhlo.reduce"(%alloc_9, %alloc, %alloc_10) ({
  ^bb0(%arg2: memref<f32>, %arg3: memref<f32>, %arg4: memref<f32>):
    "lmhlo.add"(%arg2, %arg3, %arg4) {disc.device = "gpu"} : (memref<f32>, memref<f32>, memref<f32>) -> ()
    "lmhlo.terminator"() : () -> ()
  }) {dimensions = dense<0> : tensor<1xi64>, disc.device = "gpu"} : (memref<?x1xf32>, memref<f32>, memref<1xf32>) -> ()
  %alloc_11 = memref.alloc() : memref<f32>
  "lmhlo.reshape"(%alloc_10, %alloc_11) {disc.device = "gpu"} : (memref<1xf32>, memref<f32>) -> ()
  %alloc_12 = memref.alloc() : memref<f32>
  "lmhlo_disc.d2h"(%alloc_11, %alloc_12) {disc.device = "cpu"} : (memref<f32>, memref<f32>) -> ()
  return %alloc_12 : memref<f32>
}

// -----// IR Dump After DiscAssignMemorySpacePass (disc-assign-memory-space) //----- //
module {
  func.func @main(%arg0: memref<?x4xf32>, %arg1: memref<?x4xf32>) -> memref<f32> attributes {tf.entry_function = {input_placements = "cpu,cpu", inputs = "arg0,arg1", output_placements = "cpu", outputs = "out0"}} {
    %c1_i32 = arith.constant 1 : i32
    %c4_i32 = arith.constant 4 : i32
    %c1 = arith.constant 1 : index
    %c0 = arith.constant 0 : index
    %c4 = arith.constant 4 : index
    %alloc = memref.alloc() : memref<f32, #gpu.address_space<global>>
    "lmhlo.constant"(%alloc) {disc.device = "gpu", value = dense<0.000000e+00> : tensor<f32>} : (memref<f32, #gpu.address_space<global>>) -> ()
    %dim = memref.dim %arg0, %c0 : memref<?x4xf32>
    %reinterpret_cast = memref.reinterpret_cast %arg0 to offset: [0], sizes: [%dim, 4], strides: [4, 1] {kDiscSymbolicDimAttr = [@S0, @C4]} : memref<?x4xf32> to memref<?x4xf32>
    %dim_0 = memref.dim %arg1, %c0 : memref<?x4xf32>
    %reinterpret_cast_1 = memref.reinterpret_cast %arg1 to offset: [0], sizes: [%dim_0, 4], strides: [4, 1] {kDiscSymbolicDimAttr = [@S1, @C4]} : memref<?x4xf32> to memref<?x4xf32>
    %0 = arith.cmpi eq, %dim_0, %c1 : index
    %1 = arith.select %0, %dim, %dim_0 : index
    %alloc_2 = memref.alloc() {alignment = 64 : i64} : memref<2xindex>
    memref.store %1, %alloc_2[%c0] : memref<2xindex>
    memref.store %c4, %alloc_2[%c1] : memref<2xindex>
    %alloc_3 = memref.alloc(%dim) {kDiscSymbolicDimAttr = [@S0, @C4]} : memref<?x4xf32, #gpu.address_space<global>>
    "lmhlo_disc.h2d"(%reinterpret_cast, %alloc_3) : (memref<?x4xf32>, memref<?x4xf32, #gpu.address_space<global>>) -> ()
    %alloc_4 = memref.alloc(%1) {kDiscSymbolicDimAttr = [@S2, @C4]} : memref<?x4xf32, #gpu.address_space<global>>
    "lmhlo.dynamic_broadcast_in_dim"(%alloc_3, %alloc_2, %alloc_4) {broadcast_dimensions = dense<[0, 1]> : tensor<2xi64>, disc.device = "gpu"} : (memref<?x4xf32, #gpu.address_space<global>>, memref<2xindex>, memref<?x4xf32, #gpu.address_space<global>>) -> ()
    %alloc_5 = memref.alloc(%dim_0) {kDiscSymbolicDimAttr = [@S1, @C4]} : memref<?x4xf32, #gpu.address_space<global>>
    "lmhlo_disc.h2d"(%reinterpret_cast_1, %alloc_5) : (memref<?x4xf32>, memref<?x4xf32, #gpu.address_space<global>>) -> ()
    %alloc_6 = memref.alloc(%1) {kDiscSymbolicDimAttr = [@S2, @C4]} : memref<?x4xf32, #gpu.address_space<global>>
    "lmhlo.dynamic_broadcast_in_dim"(%alloc_5, %alloc_2, %alloc_6) {broadcast_dimensions = dense<[0, 1]> : tensor<2xi64>, disc.device = "gpu"} : (memref<?x4xf32, #gpu.address_space<global>>, memref<2xindex>, memref<?x4xf32, #gpu.address_space<global>>) -> ()
    %alloc_7 = memref.alloc(%1) {kDiscSymbolicDimAttr = [@S2, @C4]} : memref<?x4xf32, #gpu.address_space<global>>
    "lmhlo.multiply"(%alloc_4, %alloc_6, %alloc_7) {disc.device = "gpu"} : (memref<?x4xf32, #gpu.address_space<global>>, memref<?x4xf32, #gpu.address_space<global>>, memref<?x4xf32, #gpu.address_space<global>>) -> ()
    %2 = arith.index_cast %1 : index to i32
    %3 = arith.muli %2, %c4_i32 : i32
    %alloc_8 = memref.alloc() {alignment = 64 : i64} : memref<2xi32>
    memref.store %3, %alloc_8[%c0] : memref<2xi32>
    memref.store %c1_i32, %alloc_8[%c1] : memref<2xi32>
    %4 = arith.index_cast %3 : i32 to index
    %alloc_9 = memref.alloc(%4) {kDiscSymbolicDimAttr = [@S3, @C1]} : memref<?x1xf32, #gpu.address_space<global>>
    "lmhlo.dynamic_reshape"(%alloc_7, %alloc_8, %alloc_9) {disc.device = "gpu"} : (memref<?x4xf32, #gpu.address_space<global>>, memref<2xi32>, memref<?x1xf32, #gpu.address_space<global>>) -> ()
    %alloc_10 = memref.alloc() : memref<1xf32, #gpu.address_space<global>>
    "lmhlo.reduce"(%alloc_9, %alloc, %alloc_10) ({
    ^bb0(%arg2: memref<f32>, %arg3: memref<f32>, %arg4: memref<f32>):
      "lmhlo.add"(%arg2, %arg3, %arg4) {disc.device = "gpu"} : (memref<f32>, memref<f32>, memref<f32>) -> ()
      "lmhlo.terminator"() : () -> ()
    }) {dimensions = dense<0> : tensor<1xi64>, disc.device = "gpu"} : (memref<?x1xf32, #gpu.address_space<global>>, memref<f32, #gpu.address_space<global>>, memref<1xf32, #gpu.address_space<global>>) -> ()
    %alloc_11 = memref.alloc() : memref<f32, #gpu.address_space<global>>
    "lmhlo.reshape"(%alloc_10, %alloc_11) {disc.device = "gpu"} : (memref<1xf32, #gpu.address_space<global>>, memref<f32, #gpu.address_space<global>>) -> ()
    %alloc_12 = memref.alloc() : memref<f32>
    "lmhlo_disc.d2h"(%alloc_11, %alloc_12) {disc.device = "cpu"} : (memref<f32, #gpu.address_space<global>>, memref<f32>) -> ()
    return %alloc_12 : memref<f32>
  }
  "disc_shape.SymbolicDim"() {knownNegativeOne = false, knownNonNegative = true, knownNonSizeOne = false, knownNonSizeZero = false, sym_name = "S0", value = -9223372036854775808 : i64} : () -> ()
  "disc_shape.SymbolicDim"() {knownNegativeOne = false, knownNonNegative = true, knownNonSizeOne = true, knownNonSizeZero = true, sym_name = "C4", value = 4 : i64} : () -> ()
  "disc_shape.SymbolicDim"() {knownNegativeOne = false, knownNonNegative = true, knownNonSizeOne = false, knownNonSizeZero = false, sym_name = "S1", value = -9223372036854775808 : i64} : () -> ()
  "disc_shape.SymbolicDim"() {knownNegativeOne = false, knownNonNegative = true, knownNonSizeOne = false, knownNonSizeZero = false, sym_name = "S2", value = -9223372036854775808 : i64} : () -> ()
  "disc_shape.SymbolicDim"() {knownNegativeOne = false, knownNonNegative = true, knownNonSizeOne = false, knownNonSizeZero = true, sym_name = "C1", value = 1 : i64} : () -> ()
  "disc_shape.SymbolicDim"() {knownNegativeOne = false, knownNonNegative = true, knownNonSizeOne = true, knownNonSizeZero = false, sym_name = "S3", value = -9223372036854775808 : i64} : () -> ()
  func.func @shape_constraint_graph() {
    %c4 = arith.constant 4 : index
    %0 = "disc_shape.dim"() {name = @S2} : () -> index
    %1 = "disc_shape.dim"() {name = @S3} : () -> index
    "disc_shape.tie_product_equal"(%c4, %0, %1) {operand_segment_sizes = array<i32: 2, 1>} : (index, index, index) -> ()
    return
  }
}


// -----// IR Dump After PromoteBuffersToStack (promote-buffers-to-stack) //----- //
func.func @main(%arg0: memref<?x4xf32>, %arg1: memref<?x4xf32>) -> memref<f32> attributes {tf.entry_function = {input_placements = "cpu,cpu", inputs = "arg0,arg1", output_placements = "cpu", outputs = "out0"}} {
  %c1_i32 = arith.constant 1 : i32
  %c4_i32 = arith.constant 4 : i32
  %c1 = arith.constant 1 : index
  %c0 = arith.constant 0 : index
  %c4 = arith.constant 4 : index
  %alloc = memref.alloc() : memref<f32, #gpu.address_space<global>>
  "lmhlo.constant"(%alloc) {disc.device = "gpu", value = dense<0.000000e+00> : tensor<f32>} : (memref<f32, #gpu.address_space<global>>) -> ()
  %dim = memref.dim %arg0, %c0 : memref<?x4xf32>
  %reinterpret_cast = memref.reinterpret_cast %arg0 to offset: [0], sizes: [%dim, 4], strides: [4, 1] {kDiscSymbolicDimAttr = [@S0, @C4]} : memref<?x4xf32> to memref<?x4xf32>
  %dim_0 = memref.dim %arg1, %c0 : memref<?x4xf32>
  %reinterpret_cast_1 = memref.reinterpret_cast %arg1 to offset: [0], sizes: [%dim_0, 4], strides: [4, 1] {kDiscSymbolicDimAttr = [@S1, @C4]} : memref<?x4xf32> to memref<?x4xf32>
  %0 = arith.cmpi eq, %dim_0, %c1 : index
  %1 = arith.select %0, %dim, %dim_0 : index
  %alloca = memref.alloca() {alignment = 64 : i64} : memref<2xindex>
  memref.store %1, %alloca[%c0] : memref<2xindex>
  memref.store %c4, %alloca[%c1] : memref<2xindex>
  %alloc_2 = memref.alloc(%dim) {kDiscSymbolicDimAttr = [@S0, @C4]} : memref<?x4xf32, #gpu.address_space<global>>
  "lmhlo_disc.h2d"(%reinterpret_cast, %alloc_2) : (memref<?x4xf32>, memref<?x4xf32, #gpu.address_space<global>>) -> ()
  %alloc_3 = memref.alloc(%1) {kDiscSymbolicDimAttr = [@S2, @C4]} : memref<?x4xf32, #gpu.address_space<global>>
  "lmhlo.dynamic_broadcast_in_dim"(%alloc_2, %alloca, %alloc_3) {broadcast_dimensions = dense<[0, 1]> : tensor<2xi64>, disc.device = "gpu"} : (memref<?x4xf32, #gpu.address_space<global>>, memref<2xindex>, memref<?x4xf32, #gpu.address_space<global>>) -> ()
  %alloc_4 = memref.alloc(%dim_0) {kDiscSymbolicDimAttr = [@S1, @C4]} : memref<?x4xf32, #gpu.address_space<global>>
  "lmhlo_disc.h2d"(%reinterpret_cast_1, %alloc_4) : (memref<?x4xf32>, memref<?x4xf32, #gpu.address_space<global>>) -> ()
  %alloc_5 = memref.alloc(%1) {kDiscSymbolicDimAttr = [@S2, @C4]} : memref<?x4xf32, #gpu.address_space<global>>
  "lmhlo.dynamic_broadcast_in_dim"(%alloc_4, %alloca, %alloc_5) {broadcast_dimensions = dense<[0, 1]> : tensor<2xi64>, disc.device = "gpu"} : (memref<?x4xf32, #gpu.address_space<global>>, memref<2xindex>, memref<?x4xf32, #gpu.address_space<global>>) -> ()
  %alloc_6 = memref.alloc(%1) {kDiscSymbolicDimAttr = [@S2, @C4]} : memref<?x4xf32, #gpu.address_space<global>>
  "lmhlo.multiply"(%alloc_3, %alloc_5, %alloc_6) {disc.device = "gpu"} : (memref<?x4xf32, #gpu.address_space<global>>, memref<?x4xf32, #gpu.address_space<global>>, memref<?x4xf32, #gpu.address_space<global>>) -> ()
  %2 = arith.index_cast %1 : index to i32
  %3 = arith.muli %2, %c4_i32 : i32
  %alloca_7 = memref.alloca() {alignment = 64 : i64} : memref<2xi32>
  memref.store %3, %alloca_7[%c0] : memref<2xi32>
  memref.store %c1_i32, %alloca_7[%c1] : memref<2xi32>
  %4 = arith.index_cast %3 : i32 to index
  %alloc_8 = memref.alloc(%4) {kDiscSymbolicDimAttr = [@S3, @C1]} : memref<?x1xf32, #gpu.address_space<global>>
  "lmhlo.dynamic_reshape"(%alloc_6, %alloca_7, %alloc_8) {disc.device = "gpu"} : (memref<?x4xf32, #gpu.address_space<global>>, memref<2xi32>, memref<?x1xf32, #gpu.address_space<global>>) -> ()
  %alloc_9 = memref.alloc() : memref<1xf32, #gpu.address_space<global>>
  "lmhlo.reduce"(%alloc_8, %alloc, %alloc_9) ({
  ^bb0(%arg2: memref<f32>, %arg3: memref<f32>, %arg4: memref<f32>):
    "lmhlo.add"(%arg2, %arg3, %arg4) {disc.device = "gpu"} : (memref<f32>, memref<f32>, memref<f32>) -> ()
    "lmhlo.terminator"() : () -> ()
  }) {dimensions = dense<0> : tensor<1xi64>, disc.device = "gpu"} : (memref<?x1xf32, #gpu.address_space<global>>, memref<f32, #gpu.address_space<global>>, memref<1xf32, #gpu.address_space<global>>) -> ()
  %alloc_10 = memref.alloc() : memref<f32, #gpu.address_space<global>>
  "lmhlo.reshape"(%alloc_9, %alloc_10) {disc.device = "gpu"} : (memref<1xf32, #gpu.address_space<global>>, memref<f32, #gpu.address_space<global>>) -> ()
  %alloc_11 = memref.alloc() : memref<f32>
  "lmhlo_disc.d2h"(%alloc_10, %alloc_11) {disc.device = "cpu"} : (memref<f32, #gpu.address_space<global>>, memref<f32>) -> ()
  return %alloc_11 : memref<f32>
}

SymbolicDimMgr::save walkRankedTensorValue takes: 2 us
SymbolicDimMgr::save update attributes takes: 10 us
SymbolicDimMgr::updateProductEqualityMap simplifySymbolicDimProductPair takes: 6 us
productSet.size() = 2
SymbolicDimMgr::updateProductEqualityMap propagate graph takes: 4 us
SymbolicDimMgr::updateProductEqualityMap remove multiply takes: 10 us
SymbolicDimMgr::updateProductEqualityMap build toRemove  takes: 0 us
SymbolicDimMgr::updateProductEqualityMap apply toRemove  takes: 0 us
SymbolicDimMgr::save updateProductEqualityMap takes: 43 us
SymbolicDimMgr::save updateFunctionType takes: 2 us
SymbolicDimMgr::save collect symbolicDim ops takes: 8 us
SymbolicDimMgr::save remove symbolicDim ops takes: 0 us
SymbolicDimMgr::save remove unused production takes: 0 us
SymbolicDimMgr::save remove unused production #2 takes: 0 us
SymbolicDimMgr::save canonicalize the name takes: 9 us
SymbolicDimMgr::save replace the name takes: 7 us
SymbolicDimMgr::save updateFunctionType takes: 1 us
// -----// IR Dump After DiscFusionPass (disc-fusion) //----- //
func.func @main(%arg0: memref<?x4xf32>, %arg1: memref<?x4xf32>) -> memref<f32> attributes {tf.entry_function = {input_placements = "cpu,cpu", inputs = "arg0,arg1", output_placements = "cpu", outputs = "out0"}} {
  %c1_i32 = arith.constant 1 : i32
  %c4_i32 = arith.constant 4 : i32
  %c1 = arith.constant 1 : index
  %c0 = arith.constant 0 : index
  %dim = memref.dim %arg1, %c0 : memref<?x4xf32>
  %dim_0 = memref.dim %arg0, %c0 : memref<?x4xf32>
  %c4 = arith.constant 4 : index
  %alloc = memref.alloc() : memref<f32, #gpu.address_space<global>>
  %reinterpret_cast = memref.reinterpret_cast %arg0 to offset: [0], sizes: [%dim_0, 4], strides: [4, 1] {kDiscSymbolicDimAttr = [@S0, @C4]} : memref<?x4xf32> to memref<?x4xf32>
  %reinterpret_cast_1 = memref.reinterpret_cast %arg1 to offset: [0], sizes: [%dim, 4], strides: [4, 1] {kDiscSymbolicDimAttr = [@S1, @C4]} : memref<?x4xf32> to memref<?x4xf32>
  %0 = arith.cmpi eq, %dim, %c1 : index
  %1 = arith.select %0, %dim_0, %dim : index
  %alloca = memref.alloca() {alignment = 64 : i64} : memref<2xindex>
  memref.store %1, %alloca[%c0] : memref<2xindex>
  memref.store %c4, %alloca[%c1] : memref<2xindex>
  %alloc_2 = memref.alloc(%dim_0) {kDiscSymbolicDimAttr = [@S0, @C4]} : memref<?x4xf32, #gpu.address_space<global>>
  "lmhlo_disc.h2d"(%reinterpret_cast, %alloc_2) : (memref<?x4xf32>, memref<?x4xf32, #gpu.address_space<global>>) -> ()
  %alloc_3 = memref.alloc(%1) {kDiscSymbolicDimAttr = [@S2, @C4]} : memref<?x4xf32, #gpu.address_space<global>>
  %alloc_4 = memref.alloc(%dim) {kDiscSymbolicDimAttr = [@S1, @C4]} : memref<?x4xf32, #gpu.address_space<global>>
  "lmhlo_disc.h2d"(%reinterpret_cast_1, %alloc_4) : (memref<?x4xf32>, memref<?x4xf32, #gpu.address_space<global>>) -> ()
  %alloc_5 = memref.alloc(%1) {kDiscSymbolicDimAttr = [@S2, @C4]} : memref<?x4xf32, #gpu.address_space<global>>
  %alloc_6 = memref.alloc(%1) {kDiscSymbolicDimAttr = [@S2, @C4]} : memref<?x4xf32, #gpu.address_space<global>>
  %2 = arith.index_cast %1 : index to i32
  %3 = arith.muli %2, %c4_i32 : i32
  %alloca_7 = memref.alloca() {alignment = 64 : i64} : memref<2xi32>
  memref.store %3, %alloca_7[%c0] : memref<2xi32>
  memref.store %c1_i32, %alloca_7[%c1] : memref<2xi32>
  %4 = arith.index_cast %3 : i32 to index
  %alloc_8 = memref.alloc(%4) {kDiscSymbolicDimAttr = [@S3, @C1]} : memref<?x1xf32, #gpu.address_space<global>>
  %alloc_9 = memref.alloc() : memref<1xf32, #gpu.address_space<global>>
  "lmhlo.fusion"() ({
    "lmhlo.constant"(%alloc) {disc.device = "gpu", value = dense<0.000000e+00> : tensor<f32>} : (memref<f32, #gpu.address_space<global>>) -> ()
    "lmhlo.dynamic_broadcast_in_dim"(%alloc_2, %alloca, %alloc_3) {broadcast_dimensions = dense<[0, 1]> : tensor<2xi64>, disc.device = "gpu"} : (memref<?x4xf32, #gpu.address_space<global>>, memref<2xindex>, memref<?x4xf32, #gpu.address_space<global>>) -> ()
    "lmhlo.dynamic_broadcast_in_dim"(%alloc_4, %alloca, %alloc_5) {broadcast_dimensions = dense<[0, 1]> : tensor<2xi64>, disc.device = "gpu"} : (memref<?x4xf32, #gpu.address_space<global>>, memref<2xindex>, memref<?x4xf32, #gpu.address_space<global>>) -> ()
    "lmhlo.multiply"(%alloc_3, %alloc_5, %alloc_6) {disc.device = "gpu"} : (memref<?x4xf32, #gpu.address_space<global>>, memref<?x4xf32, #gpu.address_space<global>>, memref<?x4xf32, #gpu.address_space<global>>) -> ()
    "lmhlo.dynamic_reshape"(%alloc_6, %alloca_7, %alloc_8) {disc.device = "gpu"} : (memref<?x4xf32, #gpu.address_space<global>>, memref<2xi32>, memref<?x1xf32, #gpu.address_space<global>>) -> ()
    "lmhlo.reduce"(%alloc_8, %alloc, %alloc_9) ({
    ^bb0(%arg2: memref<f32>, %arg3: memref<f32>, %arg4: memref<f32>):
      "lmhlo.add"(%arg2, %arg3, %arg4) {disc.device = "gpu"} : (memref<f32>, memref<f32>, memref<f32>) -> ()
      "lmhlo.terminator"() : () -> ()
    }) {dimensions = dense<0> : tensor<1xi64>, disc.device = "gpu"} : (memref<?x1xf32, #gpu.address_space<global>>, memref<f32, #gpu.address_space<global>>, memref<1xf32, #gpu.address_space<global>>) -> ()
    "lmhlo.terminator"() : () -> ()
  }) {disc.device = "gpu", disc.fusion.name = "main_kColReduction_reduce__6_1_0", disc.fusion_type = "kColReduction"} : () -> ()
  %alloc_10 = memref.alloc() : memref<f32, #gpu.address_space<global>>
  "lmhlo.reshape"(%alloc_9, %alloc_10) {disc.device = "gpu"} : (memref<1xf32, #gpu.address_space<global>>, memref<f32, #gpu.address_space<global>>) -> ()
  %alloc_11 = memref.alloc() : memref<f32>
  "lmhlo_disc.d2h"(%alloc_10, %alloc_11) {disc.device = "cpu"} : (memref<f32, #gpu.address_space<global>>, memref<f32>) -> ()
  return %alloc_11 : memref<f32>
}

SymbolicDimMgr::save walkRankedTensorValue takes: 4 us
SymbolicDimMgr::save update attributes takes: 17 us
SymbolicDimMgr::updateProductEqualityMap simplifySymbolicDimProductPair takes: 10 us
productSet.size() = 4
SymbolicDimMgr::updateProductEqualityMap propagate graph takes: 6 us
SymbolicDimMgr::updateProductEqualityMap remove multiply takes: 25 us
SymbolicDimMgr::updateProductEqualityMap build toRemove  takes: 1 us
SymbolicDimMgr::updateProductEqualityMap apply toRemove  takes: 1 us
SymbolicDimMgr::save updateProductEqualityMap takes: 63 us
SymbolicDimMgr::save updateFunctionType takes: 3 us
SymbolicDimMgr::save collect symbolicDim ops takes: 15 us
SymbolicDimMgr::save remove symbolicDim ops takes: 0 us
SymbolicDimMgr::save remove unused production takes: 0 us
SymbolicDimMgr::save remove unused production #2 takes: 1 us
SymbolicDimMgr::save canonicalize the name takes: 10 us
SymbolicDimMgr::save replace the name takes: 17 us
SymbolicDimMgr::save updateFunctionType takes: 2 us
// -----// IR Dump After DiscSpecializeFusionWithSpeculationPass (disc-specialize-fusion-with-speculation) //----- //
func.func @main(%arg0: memref<?x4xf32>, %arg1: memref<?x4xf32>) -> memref<f32> attributes {tf.entry_function = {input_placements = "cpu,cpu", inputs = "arg0,arg1", output_placements = "cpu", outputs = "out0"}} {
  %c1_i32 = arith.constant 1 : i32
  %c4_i32 = arith.constant 4 : i32
  %c1 = arith.constant 1 : index
  %c0 = arith.constant 0 : index
  %dim = memref.dim %arg1, %c0 : memref<?x4xf32>
  %dim_0 = memref.dim %arg0, %c0 : memref<?x4xf32>
  %c4 = arith.constant 4 : index
  %alloc = memref.alloc() : memref<f32, #gpu.address_space<global>>
  %reinterpret_cast = memref.reinterpret_cast %arg0 to offset: [0], sizes: [%dim_0, 4], strides: [4, 1] {kDiscSymbolicDimAttr = [@S0, @C4]} : memref<?x4xf32> to memref<?x4xf32>
  %reinterpret_cast_1 = memref.reinterpret_cast %arg1 to offset: [0], sizes: [%dim, 4], strides: [4, 1] {kDiscSymbolicDimAttr = [@S1, @C4]} : memref<?x4xf32> to memref<?x4xf32>
  %0 = arith.cmpi eq, %dim, %c1 : index
  %1 = arith.select %0, %dim_0, %dim : index
  %alloca = memref.alloca() {alignment = 64 : i64} : memref<2xindex>
  memref.store %1, %alloca[%c0] : memref<2xindex>
  memref.store %c4, %alloca[%c1] : memref<2xindex>
  %alloc_2 = memref.alloc(%dim_0) {kDiscSymbolicDimAttr = [@S0, @C4]} : memref<?x4xf32, #gpu.address_space<global>>
  "lmhlo_disc.h2d"(%reinterpret_cast, %alloc_2) : (memref<?x4xf32>, memref<?x4xf32, #gpu.address_space<global>>) -> ()
  %alloc_3 = memref.alloc(%1) {kDiscSymbolicDimAttr = [@S2, @C4]} : memref<?x4xf32, #gpu.address_space<global>>
  %alloc_4 = memref.alloc(%dim) {kDiscSymbolicDimAttr = [@S1, @C4]} : memref<?x4xf32, #gpu.address_space<global>>
  "lmhlo_disc.h2d"(%reinterpret_cast_1, %alloc_4) : (memref<?x4xf32>, memref<?x4xf32, #gpu.address_space<global>>) -> ()
  %alloc_5 = memref.alloc(%1) {kDiscSymbolicDimAttr = [@S2, @C4]} : memref<?x4xf32, #gpu.address_space<global>>
  %alloc_6 = memref.alloc(%1) {kDiscSymbolicDimAttr = [@S2, @C4]} : memref<?x4xf32, #gpu.address_space<global>>
  %2 = arith.index_cast %1 : index to i32
  %3 = arith.muli %2, %c4_i32 : i32
  %alloca_7 = memref.alloca() {alignment = 64 : i64} : memref<2xi32>
  memref.store %3, %alloca_7[%c0] : memref<2xi32>
  memref.store %c1_i32, %alloca_7[%c1] : memref<2xi32>
  %4 = arith.index_cast %3 : i32 to index
  %alloc_8 = memref.alloc(%4) {kDiscSymbolicDimAttr = [@S3, @C1]} : memref<?x1xf32, #gpu.address_space<global>>
  %alloc_9 = memref.alloc() : memref<1xf32, #gpu.address_space<global>>
  %c0_10 = arith.constant 0 : index
  %dim_11 = memref.dim %alloc_2, %c0_10 : memref<?x4xf32, #gpu.address_space<global>>
  %c4_12 = arith.constant 4 : index
  %c4_13 = arith.constant 4 : index
  %5 = arith.muli %c4_13, %dim_11 : index
  %reinterpret_cast_14 = memref.reinterpret_cast %alloc_2 to offset: [0], sizes: [%dim_11, 4], strides: [4, 1] {kDiscSymbolicDimAttr = [@S4, @C4]} : memref<?x4xf32, #gpu.address_space<global>> to memref<?x4xf32, #gpu.address_space<global>>
  %c0_15 = arith.constant 0 : index
  %dim_16 = memref.dim %alloc_3, %c0_15 : memref<?x4xf32, #gpu.address_space<global>>
  %c4_17 = arith.constant 4 : index
  %c4_18 = arith.constant 4 : index
  %6 = arith.muli %c4_18, %dim_16 : index
  %reinterpret_cast_19 = memref.reinterpret_cast %alloc_3 to offset: [0], sizes: [%dim_16, 4], strides: [4, 1] {kDiscSymbolicDimAttr = [@S4, @C4]} : memref<?x4xf32, #gpu.address_space<global>> to memref<?x4xf32, #gpu.address_space<global>>
  %c0_20 = arith.constant 0 : index
  %dim_21 = memref.dim %alloc_4, %c0_20 : memref<?x4xf32, #gpu.address_space<global>>
  %c4_22 = arith.constant 4 : index
  %c4_23 = arith.constant 4 : index
  %7 = arith.muli %c4_23, %dim_21 : index
  %reinterpret_cast_24 = memref.reinterpret_cast %alloc_4 to offset: [0], sizes: [%dim_21, 4], strides: [4, 1] {kDiscSymbolicDimAttr = [@S4, @C4]} : memref<?x4xf32, #gpu.address_space<global>> to memref<?x4xf32, #gpu.address_space<global>>
  %c0_25 = arith.constant 0 : index
  %dim_26 = memref.dim %alloc_5, %c0_25 : memref<?x4xf32, #gpu.address_space<global>>
  %c4_27 = arith.constant 4 : index
  %c4_28 = arith.constant 4 : index
  %8 = arith.muli %c4_28, %dim_26 : index
  %reinterpret_cast_29 = memref.reinterpret_cast %alloc_5 to offset: [0], sizes: [%dim_26, 4], strides: [4, 1] {kDiscSymbolicDimAttr = [@S4, @C4]} : memref<?x4xf32, #gpu.address_space<global>> to memref<?x4xf32, #gpu.address_space<global>>
  %c0_30 = arith.constant 0 : index
  %dim_31 = memref.dim %alloc_6, %c0_30 : memref<?x4xf32, #gpu.address_space<global>>
  %c4_32 = arith.constant 4 : index
  %c4_33 = arith.constant 4 : index
  %9 = arith.muli %c4_33, %dim_31 : index
  %reinterpret_cast_34 = memref.reinterpret_cast %alloc_6 to offset: [0], sizes: [%dim_31, 4], strides: [4, 1] {kDiscSymbolicDimAttr = [@S4, @C4]} : memref<?x4xf32, #gpu.address_space<global>> to memref<?x4xf32, #gpu.address_space<global>>
  %c0_35 = arith.constant 0 : index
  %dim_36 = memref.dim %alloc_8, %c0_35 : memref<?x1xf32, #gpu.address_space<global>>
  %c1_37 = arith.constant 1 : index
  %c1_38 = arith.constant 1 : index
  %10 = arith.muli %c1_38, %dim_36 : index
  %reinterpret_cast_39 = memref.reinterpret_cast %alloc_8 to offset: [0], sizes: [%dim_36, 1], strides: [1, 1] {kDiscSymbolicDimAttr = [@S5, @C1]} : memref<?x1xf32, #gpu.address_space<global>> to memref<?x1xf32, #gpu.address_space<global>>
  %c0_40 = arith.constant 0 : index
  %dim_41 = memref.dim %reinterpret_cast_14, %c0_40 : memref<?x4xf32, #gpu.address_space<global>>
  %c0_42 = arith.constant 0 : index
  %dim_43 = memref.dim %reinterpret_cast_19, %c0_42 : memref<?x4xf32, #gpu.address_space<global>>
  %11 = arith.cmpi eq, %dim_41, %dim_43 : index
  %c1_44 = arith.constant 1 : index
  %dim_45 = memref.dim %reinterpret_cast_14, %c1_44 : memref<?x4xf32, #gpu.address_space<global>>
  %c1_46 = arith.constant 1 : index
  %dim_47 = memref.dim %reinterpret_cast_19, %c1_46 : memref<?x4xf32, #gpu.address_space<global>>
  %12 = arith.cmpi eq, %dim_45, %dim_47 : index
  %13 = arith.andi %12, %11 : i1
  %c0_48 = arith.constant 0 : index
  %dim_49 = memref.dim %reinterpret_cast_24, %c0_48 : memref<?x4xf32, #gpu.address_space<global>>
  %c0_50 = arith.constant 0 : index
  %dim_51 = memref.dim %reinterpret_cast_29, %c0_50 : memref<?x4xf32, #gpu.address_space<global>>
  %14 = arith.cmpi eq, %dim_49, %dim_51 : index
  %15 = arith.andi %14, %13 : i1
  %c1_52 = arith.constant 1 : index
  %dim_53 = memref.dim %reinterpret_cast_24, %c1_52 : memref<?x4xf32, #gpu.address_space<global>>
  %c1_54 = arith.constant 1 : index
  %dim_55 = memref.dim %reinterpret_cast_29, %c1_54 : memref<?x4xf32, #gpu.address_space<global>>
  %16 = arith.cmpi eq, %dim_53, %dim_55 : index
  %17 = arith.andi %16, %15 : i1
  scf.if %17 {
    %c4_58 = arith.constant 4 : index
    %c4_59 = arith.constant 4 : index
    %c0_60 = arith.constant 0 : index
    %dim_61 = memref.dim %reinterpret_cast_34, %c0_60 : memref<?x4xf32, #gpu.address_space<global>>
    %c4_62 = arith.constant 4 : index
    %c0_63 = arith.constant 0 : index
    %dim_64 = memref.dim %reinterpret_cast_34, %c0_63 : memref<?x4xf32, #gpu.address_space<global>>
    %c4_65 = arith.constant 4 : index
    %c0_66 = arith.constant 0 : index
    %dim_67 = memref.dim %reinterpret_cast_39, %c0_66 : memref<?x1xf32, #gpu.address_space<global>>
    %c1_68 = arith.constant 1 : index
    %c0_69 = arith.constant 0 : index
    %dim_70 = memref.dim %reinterpret_cast_39, %c0_69 : memref<?x1xf32, #gpu.address_space<global>>
    %c1_71 = arith.constant 1 : index
    %c4_72 = arith.constant 4 : index
    %18 = arith.muli %c4_72, %dim_64 : index
    %reinterpret_cast_73 = memref.reinterpret_cast %reinterpret_cast_14 to offset: [0], sizes: [%dim_64, 4], strides: [4, 1] {kDiscSymbolicDimAttr = [@S4, @C4]} : memref<?x4xf32, #gpu.address_space<global>> to memref<?x4xf32, #gpu.address_space<global>>
    %c4_74 = arith.constant 4 : index
    %19 = arith.muli %c4_74, %dim_64 : index
    %reinterpret_cast_75 = memref.reinterpret_cast %reinterpret_cast_24 to offset: [0], sizes: [%dim_64, 4], strides: [4, 1] {kDiscSymbolicDimAttr = [@S4, @C4]} : memref<?x4xf32, #gpu.address_space<global>> to memref<?x4xf32, #gpu.address_space<global>>
    %c4_76 = arith.constant 4 : index
    %20 = arith.muli %c4_76, %dim_64 : index
    %reinterpret_cast_77 = memref.reinterpret_cast %reinterpret_cast_34 to offset: [0], sizes: [%dim_64, 4], strides: [4, 1] {kDiscSymbolicDimAttr = [@S4, @C4]} : memref<?x4xf32, #gpu.address_space<global>> to memref<?x4xf32, #gpu.address_space<global>>
    %c1_78 = arith.constant 1 : index
    %21 = arith.muli %c1_78, %dim_70 : index
    %reinterpret_cast_79 = memref.reinterpret_cast %reinterpret_cast_39 to offset: [0], sizes: [%dim_70, 1], strides: [1, 1] {kDiscSymbolicDimAttr = [@S5, @C1]} : memref<?x1xf32, #gpu.address_space<global>> to memref<?x1xf32, #gpu.address_space<global>>
    %c0_80 = arith.constant 0 : index
    %dim_81 = memref.dim %reinterpret_cast_79, %c0_80 : memref<?x1xf32, #gpu.address_space<global>>
    %c1_82 = arith.constant 1 : index
    %dim_83 = memref.dim %reinterpret_cast_79, %c1_82 : memref<?x1xf32, #gpu.address_space<global>>
    %22 = arith.muli %dim_81, %dim_83 : index
    %c256 = arith.constant 256 : index
    %23 = arith.ceildivsi %22, %c256 : index
    %c72 = arith.constant 72 : index
    %24 = arith.cmpi slt, %dim_81, %dim_83 : index
    scf.if %24 {
      "lmhlo.fusion"() ({
        "lmhlo.constant"(%alloc) {disc.device = "gpu", value = dense<0.000000e+00> : tensor<f32>} : (memref<f32, #gpu.address_space<global>>) -> ()
        "lmhlo.multiply"(%reinterpret_cast_73, %reinterpret_cast_75, %reinterpret_cast_77) {disc.device = "gpu"} : (memref<?x4xf32, #gpu.address_space<global>>, memref<?x4xf32, #gpu.address_space<global>>, memref<?x4xf32, #gpu.address_space<global>>) -> ()
        "lmhlo.dynamic_reshape"(%reinterpret_cast_77, %alloca_7, %reinterpret_cast_79) {disc.device = "gpu"} : (memref<?x4xf32, #gpu.address_space<global>>, memref<2xi32>, memref<?x1xf32, #gpu.address_space<global>>) -> ()
        "lmhlo.reduce"(%reinterpret_cast_79, %alloc, %alloc_9) ({
        ^bb0(%arg2: memref<f32>, %arg3: memref<f32>, %arg4: memref<f32>):
          "lmhlo.add"(%arg2, %arg3, %arg4) {disc.device = "gpu"} : (memref<f32>, memref<f32>, memref<f32>) -> ()
          "lmhlo.terminator"() : () -> ()
        }) {dimensions = dense<0> : tensor<1xi64>, disc.device = "gpu"} : (memref<?x1xf32, #gpu.address_space<global>>, memref<f32, #gpu.address_space<global>>, memref<1xf32, #gpu.address_space<global>>) -> ()
        "lmhlo.terminator"() : () -> ()
      }) {disc.device = "gpu", disc.fusion.name = "main_kColReduction_reduce__6_1_0", disc.fusion.tag = "no_ibXthread_tile_h32", disc.fusion_type = "kColReduction", disc_col_reduction_schedule_hint = 7 : i32, disc_cta_size_hint = 512 : i32} : () -> ()
    } else {
      "lmhlo.fusion"() ({
        "lmhlo.constant"(%alloc) {disc.device = "gpu", value = dense<0.000000e+00> : tensor<f32>} : (memref<f32, #gpu.address_space<global>>) -> ()
        "lmhlo.multiply"(%reinterpret_cast_73, %reinterpret_cast_75, %reinterpret_cast_77) {disc.device = "gpu"} : (memref<?x4xf32, #gpu.address_space<global>>, memref<?x4xf32, #gpu.address_space<global>>, memref<?x4xf32, #gpu.address_space<global>>) -> ()
        "lmhlo.dynamic_reshape"(%reinterpret_cast_77, %alloca_7, %reinterpret_cast_79) {disc.device = "gpu"} : (memref<?x4xf32, #gpu.address_space<global>>, memref<2xi32>, memref<?x1xf32, #gpu.address_space<global>>) -> ()
        "lmhlo.reduce"(%reinterpret_cast_79, %alloc, %alloc_9) ({
        ^bb0(%arg2: memref<f32>, %arg3: memref<f32>, %arg4: memref<f32>):
          "lmhlo.add"(%arg2, %arg3, %arg4) {disc.device = "gpu"} : (memref<f32>, memref<f32>, memref<f32>) -> ()
          "lmhlo.terminator"() : () -> ()
        }) {dimensions = dense<0> : tensor<1xi64>, disc.device = "gpu"} : (memref<?x1xf32, #gpu.address_space<global>>, memref<f32, #gpu.address_space<global>>, memref<1xf32, #gpu.address_space<global>>) -> ()
        "lmhlo.terminator"() : () -> ()
      }) {disc.device = "gpu", disc.fusion.name = "main_kColReduction_reduce__6_1_0", disc.fusion.tag = "no_ibXblock_tile_h64", disc.fusion_type = "kColReduction", disc_col_reduction_schedule_hint = 8 : i32, disc_cta_size_hint = 256 : i32} : () -> ()
    }
  } else {
    %c0_58 = arith.constant 0 : index
    %dim_59 = memref.dim %alloc_8, %c0_58 : memref<?x1xf32, #gpu.address_space<global>>
    %c1_60 = arith.constant 1 : index
    %dim_61 = memref.dim %alloc_8, %c1_60 : memref<?x1xf32, #gpu.address_space<global>>
    %18 = arith.muli %dim_59, %dim_61 : index
    %c256 = arith.constant 256 : index
    %19 = arith.ceildivsi %18, %c256 : index
    %c72 = arith.constant 72 : index
    %20 = arith.cmpi slt, %dim_59, %dim_61 : index
    scf.if %20 {
      "lmhlo.fusion"() ({
        "lmhlo.constant"(%alloc) {disc.device = "gpu", value = dense<0.000000e+00> : tensor<f32>} : (memref<f32, #gpu.address_space<global>>) -> ()
        "lmhlo.dynamic_broadcast_in_dim"(%alloc_2, %alloca, %alloc_3) {broadcast_dimensions = dense<[0, 1]> : tensor<2xi64>, disc.device = "gpu"} : (memref<?x4xf32, #gpu.address_space<global>>, memref<2xindex>, memref<?x4xf32, #gpu.address_space<global>>) -> ()
        "lmhlo.dynamic_broadcast_in_dim"(%alloc_4, %alloca, %alloc_5) {broadcast_dimensions = dense<[0, 1]> : tensor<2xi64>, disc.device = "gpu"} : (memref<?x4xf32, #gpu.address_space<global>>, memref<2xindex>, memref<?x4xf32, #gpu.address_space<global>>) -> ()
        "lmhlo.multiply"(%alloc_3, %alloc_5, %alloc_6) {disc.device = "gpu"} : (memref<?x4xf32, #gpu.address_space<global>>, memref<?x4xf32, #gpu.address_space<global>>, memref<?x4xf32, #gpu.address_space<global>>) -> ()
        "lmhlo.dynamic_reshape"(%alloc_6, %alloca_7, %alloc_8) {disc.device = "gpu"} : (memref<?x4xf32, #gpu.address_space<global>>, memref<2xi32>, memref<?x1xf32, #gpu.address_space<global>>) -> ()
        "lmhlo.reduce"(%alloc_8, %alloc, %alloc_9) ({
        ^bb0(%arg2: memref<f32>, %arg3: memref<f32>, %arg4: memref<f32>):
          "lmhlo.add"(%arg2, %arg3, %arg4) {disc.device = "gpu"} : (memref<f32>, memref<f32>, memref<f32>) -> ()
          "lmhlo.terminator"() : () -> ()
        }) {dimensions = dense<0> : tensor<1xi64>, disc.device = "gpu"} : (memref<?x1xf32, #gpu.address_space<global>>, memref<f32, #gpu.address_space<global>>, memref<1xf32, #gpu.address_space<global>>) -> ()
        "lmhlo.terminator"() : () -> ()
      }) {disc.device = "gpu", disc.fusion.name = "main_kColReduction_reduce__6_1_0", disc.fusion.tag = "thread_tile_h32", disc.fusion_type = "kColReduction", disc_col_reduction_schedule_hint = 7 : i32, disc_cta_size_hint = 512 : i32} : () -> ()
    } else {
      "lmhlo.fusion"() ({
…
  %.fca.1.gep = getelementptr inbounds %.1, ptr %11, i64 0, i32 2, i32 1
  %.fca.1.load = load ptr, ptr %.fca.1.gep, align 8
  %.fca.3.0.gep = getelementptr inbounds %.1, ptr %11, i64 0, i32 2, i32 3
  %.fca.3.0.load = load i64, ptr %.fca.3.0.gep, align 8
  %19 = icmp eq i64 %.fca.3.0.load, 1
  %20 = select i1 %19, i64 %.fca.3.0.load11, i64 %.fca.3.0.load
  %.idx = shl i64 %.fca.3.0.load11, 4
  %21 = alloca %.2, align 8
  %22 = alloca [3 x ptr], align 8
  store ptr %21, ptr %22, align 8
  %23 = getelementptr inbounds %.2, ptr %21, i64 0, i32 1
  store i64 %.idx, ptr %23, align 8
  %24 = getelementptr inbounds ptr, ptr %22, i64 1
  store ptr %23, ptr %24, align 8
  %25 = getelementptr inbounds %.2, ptr %21, i64 0, i32 2
  %26 = getelementptr inbounds ptr, ptr %22, i64 2
  store ptr %25, ptr %26, align 8
  %27 = load ptr, ptr %0, align 8
  %28 = load ptr, ptr %9, align 8
  store ptr %27, ptr %21, align 8
  call void %28(ptr %27, ptr nonnull @alloc___gpu___pvoid_i64___pvoid, ptr nonnull %22)
  %29 = load ptr, ptr %25, align 8
  %30 = alloca %.3, align 8
  %31 = alloca [16 x ptr], align 8
  store ptr %30, ptr %31, align 8
  %32 = getelementptr inbounds %.3, ptr %30, i64 0, i32 1
  store ptr null, ptr %32, align 8
  %33 = getelementptr inbounds ptr, ptr %31, i64 1
  store ptr %32, ptr %33, align 8
  %34 = getelementptr inbounds %.3, ptr %30, i64 0, i32 2
  store ptr %.fca.0.load2, ptr %34, align 8
  %35 = getelementptr inbounds ptr, ptr %31, i64 2
  store ptr %34, ptr %35, align 8
  %36 = getelementptr inbounds %.3, ptr %30, i64 0, i32 3
  store ptr %.fca.1.load5, ptr %36, align 8
  %37 = getelementptr inbounds ptr, ptr %31, i64 3
  store ptr %36, ptr %37, align 8
  %38 = getelementptr inbounds %.3, ptr %30, i64 0, i32 4
  store i64 0, ptr %38, align 8
  %39 = getelementptr inbounds ptr, ptr %31, i64 4
  store ptr %38, ptr %39, align 8
  %40 = getelementptr inbounds %.3, ptr %30, i64 0, i32 5
  store i64 %.fca.3.0.load11, ptr %40, align 8
  %41 = getelementptr inbounds ptr, ptr %31, i64 5
  store ptr %40, ptr %41, align 8
  %42 = getelementptr inbounds %.3, ptr %30, i64 0, i32 6
  store i64 4, ptr %42, align 8
  %43 = getelementptr inbounds ptr, ptr %31, i64 6
  store ptr %42, ptr %43, align 8
  %44 = getelementptr inbounds %.3, ptr %30, i64 0, i32 7
  store i64 4, ptr %44, align 8
  %45 = getelementptr inbounds ptr, ptr %31, i64 7
  store ptr %44, ptr %45, align 8
  %46 = getelementptr inbounds %.3, ptr %30, i64 0, i32 8
  store i64 1, ptr %46, align 8
  %47 = getelementptr inbounds ptr, ptr %31, i64 8
  store ptr %46, ptr %47, align 8
  %48 = getelementptr inbounds %.3, ptr %30, i64 0, i32 9
  store ptr %29, ptr %48, align 8
  %49 = getelementptr inbounds ptr, ptr %31, i64 9
  store ptr %48, ptr %49, align 8
  %50 = getelementptr inbounds %.3, ptr %30, i64 0, i32 10
  store ptr %29, ptr %50, align 8
  %51 = getelementptr inbounds ptr, ptr %31, i64 10
  store ptr %50, ptr %51, align 8
  %52 = getelementptr inbounds %.3, ptr %30, i64 0, i32 11
  store i64 0, ptr %52, align 8
  %53 = getelementptr inbounds ptr, ptr %31, i64 11
  store ptr %52, ptr %53, align 8
  %54 = getelementptr inbounds %.3, ptr %30, i64 0, i32 12
  store i64 %.fca.3.0.load11, ptr %54, align 8
  %55 = getelementptr inbounds ptr, ptr %31, i64 12
  store ptr %54, ptr %55, align 8
  %56 = getelementptr inbounds %.3, ptr %30, i64 0, i32 13
  store i64 4, ptr %56, align 8
  %57 = getelementptr inbounds ptr, ptr %31, i64 13
  store ptr %56, ptr %57, align 8
  %58 = getelementptr inbounds %.3, ptr %30, i64 0, i32 14
  store i64 4, ptr %58, align 8
  %59 = getelementptr inbounds ptr, ptr %31, i64 14
  store ptr %58, ptr %59, align 8
  %60 = getelementptr inbounds %.3, ptr %30, i64 0, i32 15
  store i64 1, ptr %60, align 8
  %61 = getelementptr inbounds ptr, ptr %31, i64 15
  store ptr %60, ptr %61, align 8
  %62 = load ptr, ptr %0, align 8
  %63 = load ptr, ptr %9, align 8
  store ptr %62, ptr %30, align 8
  call void %63(ptr %62, ptr nonnull @h2d___gpu___pvoid_pvoid_m2df32_m2df32___void, ptr nonnull %31)
  %64 = alloca %.4, align 8
  %65 = alloca [2 x ptr], align 8
  store ptr %64, ptr %65, align 8
  %66 = getelementptr inbounds %.4, ptr %64, i64 0, i32 1
  store ptr null, ptr %66, align 8
  %67 = getelementptr inbounds ptr, ptr %65, i64 1
  store ptr %66, ptr %67, align 8
  %68 = load ptr, ptr %0, align 8
  %69 = load ptr, ptr %9, align 8
  store ptr %68, ptr %64, align 8
  call void %69(ptr %68, ptr nonnull @sync_on_stream___gpu___pvoid_pvoid___void, ptr nonnull %65)
  %.idx22 = shl i64 %.fca.3.0.load, 4
  %70 = alloca %.5, align 8
  %71 = alloca [3 x ptr], align 8
  store ptr %70, ptr %71, align 8
  %72 = getelementptr inbounds %.5, ptr %70, i64 0, i32 1
  store i64 %.idx22, ptr %72, align 8
  %73 = getelementptr inbounds ptr, ptr %71, i64 1
  store ptr %72, ptr %73, align 8
  %74 = getelementptr inbounds %.5, ptr %70, i64 0, i32 2
  %75 = getelementptr inbounds ptr, ptr %71, i64 2
  store ptr %74, ptr %75, align 8
  %76 = load ptr, ptr %0, align 8
  %77 = load ptr, ptr %9, align 8
  store ptr %76, ptr %70, align 8
  call void %77(ptr %76, ptr nonnull @alloc___gpu___pvoid_i64___pvoid, ptr nonnull %71)
  %78 = load ptr, ptr %74, align 8
  %79 = alloca %.6, align 8
  %80 = alloca [16 x ptr], align 8
  store ptr %79, ptr %80, align 8
  %81 = getelementptr inbounds %.6, ptr %79, i64 0, i32 1
  store ptr null, ptr %81, align 8
  %82 = getelementptr inbounds ptr, ptr %80, i64 1
  store ptr %81, ptr %82, align 8
  %83 = getelementptr inbounds %.6, ptr %79, i64 0, i32 2
  store ptr %.fca.0.load, ptr %83, align 8
  %84 = getelementptr inbounds ptr, ptr %80, i64 2
  store ptr %83, ptr %84, align 8
  %85 = getelementptr inbounds %.6, ptr %79, i64 0, i32 3
  store ptr %.fca.1.load, ptr %85, align 8
  %86 = getelementptr inbounds ptr, ptr %80, i64 3
  store ptr %85, ptr %86, align 8
  %87 = getelementptr inbounds %.6, ptr %79, i64 0, i32 4
  store i64 0, ptr %87, align 8
  %88 = getelementptr inbounds ptr, ptr %80, i64 4
  store ptr %87, ptr %88, align 8
  %89 = getelementptr inbounds %.6, ptr %79, i64 0, i32 5
  store i64 %.fca.3.0.load, ptr %89, align 8
  %90 = getelementptr inbounds ptr, ptr %80, i64 5
  store ptr %89, ptr %90, align 8
  %91 = getelementptr inbounds %.6, ptr %79, i64 0, i32 6
  store i64 4, ptr %91, align 8
  %92 = getelementptr inbounds ptr, ptr %80, i64 6
  store ptr %91, ptr %92, align 8
  %93 = getelementptr inbounds %.6, ptr %79, i64 0, i32 7
  store i64 4, ptr %93, align 8
  %94 = getelementptr inbounds ptr, ptr %80, i64 7
  store ptr %93, ptr %94, align 8
  %95 = getelementptr inbounds %.6, ptr %79, i64 0, i32 8
  store i64 1, ptr %95, align 8
  %96 = getelementptr inbounds ptr, ptr %80, i64 8
  store ptr %95, ptr %96, align 8
  %97 = getelementptr inbounds %.6, ptr %79, i64 0, i32 9
  store ptr %78, ptr %97, align 8
  %98 = getelementptr inbounds ptr, ptr %80, i64 9
  store ptr %97, ptr %98, align 8
  %99 = getelementptr inbounds %.6, ptr %79, i64 0, i32 10
  store ptr %78, ptr %99, align 8
  %100 = getelementptr inbounds ptr, ptr %80, i64 10
  store ptr %99, ptr %100, align 8
  %101 = getelementptr inbounds %.6, ptr %79, i64 0, i32 11
  store i64 0, ptr %101, align 8
  %102 = getelementptr inbounds ptr, ptr %80, i64 11
  store ptr %101, ptr %102, align 8
  %103 = getelementptr inbounds %.6, ptr %79, i64 0, i32 12
  store i64 %.fca.3.0.load, ptr %103, align 8
  %104 = getelementptr inbounds ptr, ptr %80, i64 12
  store ptr %103, ptr %104, align 8
  %105 = getelementptr inbounds %.6, ptr %79, i64 0, i32 13
  store i64 4, ptr %105, align 8
  %106 = getelementptr inbounds ptr, ptr %80, i64 13
  store ptr %105, ptr %106, align 8
  %107 = getelementptr inbounds %.6, ptr %79, i64 0, i32 14
  store i64 4, ptr %107, align 8
  %108 = getelementptr inbounds ptr, ptr %80, i64 14
  store ptr %107, ptr %108, align 8
  %109 = getelementptr inbounds %.6, ptr %79, i64 0, i32 15
  store i64 1, ptr %109, align 8
  %110 = getelementptr inbounds ptr, ptr %80, i64 15
  store ptr %109, ptr %110, align 8
  %111 = load ptr, ptr %0, align 8
  %112 = load ptr, ptr %9, align 8
  store ptr %111, ptr %79, align 8
  call void %112(ptr %111, ptr nonnull @h2d___gpu___pvoid_pvoid_m2df32_m2df32___void, ptr nonnull %80)
  %113 = alloca %.7, align 8
  %114 = alloca [2 x ptr], align 8
  store ptr %113, ptr %114, align 8
  %115 = getelementptr inbounds %.7, ptr %113, i64 0, i32 1
  store ptr null, ptr %115, align 8
  %116 = getelementptr inbounds ptr, ptr %114, i64 1
  store ptr %115, ptr %116, align 8
  %117 = load ptr, ptr %0, align 8
  %118 = load ptr, ptr %9, align 8
  store ptr %117, ptr %113, align 8
  call void %118(ptr %117, ptr nonnull @sync_on_stream___gpu___pvoid_pvoid___void, ptr nonnull %114)
  %119 = trunc i64 %20 to i32
  %120 = shl i32 %119, 2
  %121 = sext i32 %120 to i64
  %122 = icmp eq i64 %.fca.3.0.load11, %20
  %123 = icmp eq i64 %.fca.3.0.load, %20
  %124 = and i1 %123, %122
  %125 = alloca %.8, align 8
  %126 = alloca [3 x ptr], align 8
  store ptr %125, ptr %126, align 8
  %127 = getelementptr inbounds %.8, ptr %125, i64 0, i32 1
  store i64 4, ptr %127, align 8
  %128 = getelementptr inbounds ptr, ptr %126, i64 1
  store ptr %127, ptr %128, align 8
  %129 = getelementptr inbounds %.8, ptr %125, i64 0, i32 2
  %130 = getelementptr inbounds ptr, ptr %126, i64 2
  store ptr %129, ptr %130, align 8
  %131 = load ptr, ptr %0, align 8
  %132 = load ptr, ptr %9, align 8
  store ptr %131, ptr %125, align 8
  call void %132(ptr %131, ptr nonnull @alloc___gpu___pvoid_i64___pvoid, ptr nonnull %126)
  %133 = load ptr, ptr %129, align 8
  %134 = icmp slt i32 %120, 1
  %135 = alloca ptr, align 8
  br i1 %124, label %136, label %313

136:                                              ; preds = %1
  br i1 %134, label %137, label %229

137:                                              ; preds = %136
  store ptr @main_kernel_blob_gpu.binary, ptr %135, align 8
  %138 = alloca %.9, align 8
  %139 = alloca [2 x ptr], align 8
  store i64 512, ptr %138, align 8
  store ptr %138, ptr %139, align 8
  %140 = getelementptr inbounds %.9, ptr %138, i64 0, i32 1
  store ptr %133, ptr %140, align 8
  %141 = getelementptr inbounds ptr, ptr %139, i64 1
  store ptr %140, ptr %141, align 8
  %142 = alloca %.10, align 8
  %143 = alloca [14 x ptr], align 8
  store ptr %142, ptr %143, align 8
  %144 = getelementptr inbounds %.10, ptr %142, i64 0, i32 1
  store ptr %135, ptr %144, align 8
  %145 = getelementptr inbounds ptr, ptr %143, i64 1
  store ptr %144, ptr %145, align 8
  %146 = getelementptr inbounds %.10, ptr %142, i64 0, i32 2
  store i64 1, ptr %146, align 8
  %147 = getelementptr inbounds ptr, ptr %143, i64 2
  store ptr %146, ptr %147, align 8
  %148 = getelementptr inbounds %.10, ptr %142, i64 0, i32 3
  store ptr @main_kernel_main_kColReduction_reduce__6_1_0___no_ibXthread_tile_h32_kernel_name, ptr %148, align 8
  %149 = getelementptr inbounds ptr, ptr %143, i64 3
  store ptr %148, ptr %149, align 8
  %150 = getelementptr inbounds %.10, ptr %142, i64 0, i32 4
  store i64 1, ptr %150, align 8
  %151 = getelementptr inbounds ptr, ptr %143, i64 4
  store ptr %150, ptr %151, align 8
  %152 = getelementptr inbounds %.10, ptr %142, i64 0, i32 5
  store i64 1, ptr %152, align 8
  %153 = getelementptr inbounds ptr, ptr %143, i64 5
  store ptr %152, ptr %153, align 8
  %154 = getelementptr inbounds %.10, ptr %142, i64 0, i32 6
  store i64 1, ptr %154, align 8
  %155 = getelementptr inbounds ptr, ptr %143, i64 6
  store ptr %154, ptr %155, align 8
  %156 = getelementptr inbounds %.10, ptr %142, i64 0, i32 7
  store i64 512, ptr %156, align 8
  %157 = getelementptr inbounds ptr, ptr %143, i64 7
  store ptr %156, ptr %157, align 8
  %158 = getelementptr inbounds %.10, ptr %142, i64 0, i32 8
  store i64 1, ptr %158, align 8
  %159 = getelementptr inbounds ptr, ptr %143, i64 8
  store ptr %158, ptr %159, align 8
  %160 = getelementptr inbounds %.10, ptr %142, i64 0, i32 9
  store i64 1, ptr %160, align 8
  %161 = getelementptr inbounds ptr, ptr %143, i64 9
  store ptr %160, ptr %161, align 8
  %162 = getelementptr inbounds %.10, ptr %142, i64 0, i32 10
  store i32 0, ptr %162, align 8
  %163 = getelementptr inbounds ptr, ptr %143, i64 10
  store ptr %162, ptr %163, align 8
  %164 = getelementptr inbounds %.10, ptr %142, i64 0, i32 11
  store ptr null, ptr %164, align 8
  %165 = getelementptr inbounds ptr, ptr %143, i64 11
  store ptr %164, ptr %165, align 8
  %166 = getelementptr inbounds %.10, ptr %142, i64 0, i32 12
  store i32 2, ptr %166, align 8
  %167 = getelementptr inbounds ptr, ptr %143, i64 12
  store ptr %166, ptr %167, align 8
  %168 = getelementptr inbounds %.10, ptr %142, i64 0, i32 13
  store ptr %139, ptr %168, align 8
  %169 = getelementptr inbounds ptr, ptr %143, i64 13
  store ptr %168, ptr %169, align 8
  %170 = load ptr, ptr %0, align 8
  %171 = load ptr, ptr %9, align 8
  store ptr %170, ptr %142, align 8
  call void %171(ptr %170, ptr nonnull @ral_kernel_launch___gpu___pvoid_ppvoid_i64_pvoid_i64_i64_i64_i64_i64_i64_i32_pvoid_i32_ppvoid___void, ptr nonnull %143)
  %172 = icmp eq i32 %120, 0
  %173 = shl nsw i64 %121, 4
  %174 = add nsw i64 %173, -16
  %175 = and i64 %174, -512
  %176 = add nsw i64 %175, 512
  %177 = select i1 %172, i64 0, i64 %176
  %178 = icmp slt i64 %177, 1
  %179 = sub nsw i64 0, %177
  %180 = add nsw i64 %177, -1
  %181 = select i1 %178, i64 %179, i64 %180
  %182 = sdiv i64 %181, 512
  %183 = sub nsw i64 0, %182
  %184 = add nsw i64 %182, 1
  %185 = select i1 %178, i64 %183, i64 %184
  %186 = alloca ptr, align 8
  store ptr @main_kernel_0_blob_gpu.binary, ptr %186, align 8
  %187 = alloca %.11, align 8
  %188 = alloca [6 x ptr], align 8
  store i64 512, ptr %187, align 8
  store ptr %187, ptr %188, align 8
  %189 = getelementptr inbounds %.11, ptr %187, i64 0, i32 1
  store i64 %177, ptr %189, align 8
  %190 = getelementptr inbounds ptr, ptr %188, i64 1
  store ptr %189, ptr %190, align 8
  %191 = getelementptr inbounds %.11, ptr %187, i64 0, i32 2
  store i64 %121, ptr %191, align 8
  %192 = getelementptr inbounds ptr, ptr %188, i64 2
  store ptr %191, ptr %192, align 8
  %193 = getelementptr inbounds %.11, ptr %187, i64 0, i32 3
  store ptr %29, ptr %193, align 8
  %194 = getelementptr inbounds ptr, ptr %188, i64 3
  store ptr %193, ptr %194, align 8
  %195 = getelementptr inbounds %.11, ptr %187, i64 0, i32 4
  store ptr %78, ptr %195, align 8
  %196 = getelementptr inbounds ptr, ptr %188, i64 4
  store ptr %195, ptr %196, align 8
  %197 = getelementptr inbounds %.11, ptr %187, i64 0, i32 5
  store ptr %133, ptr %197, align 8
  %198 = getelementptr inbounds ptr, ptr %188, i64 5
  store ptr %197, ptr %198, align 8
  %199 = alloca %.12, align 8
  %200 = alloca [14 x ptr], align 8
  store ptr %199, ptr %200, align 8
  %201 = getelementptr inbounds %.12, ptr %199, i64 0, i32 1
  store ptr %186, ptr %201, align 8
  %202 = getelementptr inbounds ptr, ptr %200, i64 1
  store ptr %201, ptr %202, align 8
  %203 = getelementptr inbounds %.12, ptr %199, i64 0, i32 2
  store i64 1, ptr %203, align 8
  %204 = getelementptr inbounds ptr, ptr %200, i64 2
  store ptr %203, ptr %204, align 8
  %205 = getelementptr inbounds %.12, ptr %199, i64 0, i32 3
  store ptr @main_kernel_0_main_kColReduction_reduce__6_1_0___no_ibXthread_tile_h32_1_kernel_name, ptr %205, align 8
  %206 = getelementptr inbounds ptr, ptr %200, i64 3
  store ptr %205, ptr %206, align 8
  %207 = getelementptr inbounds %.12, ptr %199, i64 0, i32 4
  store i64 %185, ptr %207, align 8
  %208 = getelementptr inbounds ptr, ptr %200, i64 4
  store ptr %207, ptr %208, align 8
  %209 = getelementptr inbounds %.12, ptr %199, i64 0, i32 5
  store i64 1, ptr %209, align 8
  %210 = getelementptr inbounds ptr, ptr %200, i64 5
  store ptr %209, ptr %210, align 8
  %211 = getelementptr inbounds %.12, ptr %199, i64 0, i32 6
  store i64 1, ptr %211, align 8
  %212 = getelementptr inbounds ptr, ptr %200, i64 6
  store ptr %211, ptr %212, align 8
  %213 = getelementptr inbounds %.12, ptr %199, i64 0, i32 7
  store i64 512, ptr %213, align 8
  %214 = getelementptr inbounds ptr, ptr %200, i64 7
  store ptr %213, ptr %214, align 8
  %215 = getelementptr inbounds %.12, ptr %199, i64 0, i32 8
  store i64 1, ptr %215, align 8
  %216 = getelementptr inbounds ptr, ptr %200, i64 8
  store ptr %215, ptr %216, align 8
  %217 = getelementptr inbounds %.12, ptr %199, i64 0, i32 9
  store i64 1, ptr %217, align 8
  %218 = getelementptr inbounds ptr, ptr %200, i64 9
  store ptr %217, ptr %218, align 8
  %219 = getelementptr inbounds %.12, ptr %199, i64 0, i32 10
  store i32 0, ptr %219, align 8
  %220 = getelementptr inbounds ptr, ptr %200, i64 10
  store ptr %219, ptr %220, align 8
  %221 = getelementptr inbounds %.12, ptr %199, i64 0, i32 11
  store ptr null, ptr %221, align 8
  %222 = getelementptr inbounds ptr, ptr %200, i64 11
  store ptr %221, ptr %222, align 8
  %223 = getelementptr inbounds %.12, ptr %199, i64 0, i32 12
  store i32 6, ptr %223, align 8
  %224 = getelementptr inbounds ptr, ptr %200, i64 12
  store ptr %223, ptr %224, align 8
  %225 = getelementptr inbounds %.12, ptr %199, i64 0, i32 13
  store ptr %188, ptr %225, align 8
  %226 = getelementptr inbounds ptr, ptr %200, i64 13
  store ptr %225, ptr %226, align 8
  %227 = load ptr, ptr %0, align 8
  %228 = load ptr, ptr %9, align 8
  store ptr %227, ptr %199, align 8
  call void %228(ptr %227, ptr nonnull @ral_kernel_launch___gpu___pvoid_ppvoid_i64_pvoid_i64_i64_i64_i64_i64_i64_i32_pvoid_i32_ppvoid___void, ptr nonnull %200)
  br label %498

229:                                              ; preds = %136
  store ptr @main_kernel_1_blob_gpu.binary, ptr %135, align 8
  %230 = alloca %.22, align 8
  %231 = alloca [2 x ptr], align 8
  store i64 256, ptr %230, align 8
  store ptr %230, ptr %231, align 8
  %232 = getelementptr inbounds %.22, ptr %230, i64 0, i32 1
  store ptr %133, ptr %232, align 8
  %233 = getelementptr inbounds ptr, ptr %231, i64 1
  store ptr %232, ptr %233, align 8
  %234 = alloca %.23, align 8
  %235 = alloca [14 x ptr], align 8
  store ptr %234, ptr %235, align 8
  %236 = getelementptr inbounds %.23, ptr %234, i64 0, i32 1
  store ptr %135, ptr %236, align 8
  %237 = getelementptr inbounds ptr, ptr %235, i64 1
  store ptr %236, ptr %237, align 8
  %238 = getelementptr inbounds %.23, ptr %234, i64 0, i32 2
  store i64 1, ptr %238, align 8
  %239 = getelementptr inbounds ptr, ptr %235, i64 2
  store ptr %238, ptr %239, align 8
  %240 = getelementptr inbounds %.23, ptr %234, i64 0, i32 3
  store ptr @main_kernel_1_main_kColReduction_reduce__6_1_0___no_ibXblock_tile_h64_kernel_name, ptr %240, align 8
  %241 = getelementptr inbounds ptr, ptr %235, i64 3
  store ptr %240, ptr %241, align 8
  %242 = getelementptr inbounds %.23, ptr %234, i64 0, i32 4
  store i64 1, ptr %242, align 8
  %243 = getelementptr inbounds ptr, ptr %235, i64 4
  store ptr %242, ptr %243, align 8
  %244 = getelementptr inbounds %.23, ptr %234, i64 0, i32 5
  store i64 1, ptr %244, align 8
  %245 = getelementptr inbounds ptr, ptr %235, i64 5
  store ptr %244, ptr %245, align 8
  %246 = getelementptr inbounds %.23, ptr %234, i64 0, i32 6
  store i64 1, ptr %246, align 8
  %247 = getelementptr inbounds ptr, ptr %235, i64 6
  store ptr %246, ptr %247, align 8
  %248 = getelementptr inbounds %.23, ptr %234, i64 0, i32 7
  store i64 256, ptr %248, align 8
  %249 = getelementptr inbounds ptr, ptr %235, i64 7
  store ptr %248, ptr %249, align 8
  %250 = getelementptr inbounds %.23, ptr %234, i64 0, i32 8
  store i64 1, ptr %250, align 8
  %251 = getelementptr inbounds ptr, ptr %235, i64 8
  store ptr %250, ptr %251, align 8
  %252 = getelementptr inbounds %.23, ptr %234, i64 0, i32 9
  store i64 1, ptr %252, align 8
  %253 = getelementptr inbounds ptr, ptr %235, i64 9
  store ptr %252, ptr %253, align 8
  %254 = getelementptr inbounds %.23, ptr %234, i64 0, i32 10
  store i32 0, ptr %254, align 8
  %255 = getelementptr inbounds ptr, ptr %235, i64 10
  store ptr %254, ptr %255, align 8
  %256 = getelementptr inbounds %.23, ptr %234, i64 0, i32 11
  store ptr null, ptr %256, align 8
  %257 = getelementptr inbounds ptr, ptr %235, i64 11
  store ptr %256, ptr %257, align 8
  %258 = getelementptr inbounds %.23, ptr %234, i64 0, i32 12
  store i32 2, ptr %258, align 8
  %259 = getelementptr inbounds ptr, ptr %235, i64 12
  store ptr %258, ptr %259, align 8
  %260 = getelementptr inbounds %.23, ptr %234, i64 0, i32 13
  store ptr %231, ptr %260, align 8
  %261 = getelementptr inbounds ptr, ptr %235, i64 13
  store ptr %260, ptr %261, align 8
  %262 = load ptr, ptr %0, align 8
  %263 = load ptr, ptr %9, align 8
  store ptr %262, ptr %234, align 8
  call void %263(ptr %262, ptr nonnull @ral_kernel_launch___gpu___pvoid_ppvoid_i64_pvoid_i64_i64_i64_i64_i64_i64_i32_pvoid_i32_ppvoid___void, ptr nonnull %235)
  %264 = add nsw i64 %121, -1
  %265 = lshr i64 %264, 1
  %266 = and i64 %265, 9223372036854775552
  %267 = add nuw i64 %266, 256
  %268 = lshr i64 %264, 9
  %269 = add nuw nsw i64 %268, 1
  %270 = alloca ptr, align 8
  store ptr @main_kernel_2_blob_gpu.binary, ptr %270, align 8
  %271 = alloca %.24, align 8
  %272 = alloca [6 x ptr], align 8
  store i64 256, ptr %271, align 8
  store ptr %271, ptr %272, align 8
  %273 = getelementptr inbounds %.24, ptr %271, i64 0, i32 1
  store i64 %267, ptr %273, align 8
  %274 = getelementptr inbounds ptr, ptr %272, i64 1
  store ptr %273, ptr %274, align 8
  %275 = getelementptr inbounds %.24, ptr %271, i64 0, i32 2
  store i64 %121, ptr %275, align 8
  %276 = getelementptr inbounds ptr, ptr %272, i64 2
  store ptr %275, ptr %276, align 8
  %277 = getelementptr inbounds %.24, ptr %271, i64 0, i32 3
  store ptr %29, ptr %277, align 8
  %278 = getelementptr inbounds ptr, ptr %272, i64 3
  store ptr %277, ptr %278, align 8
  %279 = getelementptr inbounds %.24, ptr %271, i64 0, i32 4
  store ptr %78, ptr %279, align 8
  %280 = getelementptr inbounds ptr, ptr %272, i64 4
  store ptr %279, ptr %280, align 8
  %281 = getelementptr inbounds %.24, ptr %271, i64 0, i32 5
  store ptr %133, ptr %281, align 8
  %282 = getelementptr inbounds ptr, ptr %272, i64 5
  store ptr %281, ptr %282, align 8
  %283 = alloca %.25, align 8
  %284 = alloca [14 x ptr], align 8
  store ptr %283, ptr %284, align 8
  %285 = getelementptr inbounds %.25, ptr %283, i64 0, i32 1
  store ptr %270, ptr %285, align 8
  %286 = getelementptr inbounds ptr, ptr %284, i64 1
  store ptr %285, ptr %286, align 8
  %287 = getelementptr inbounds %.25, ptr %283, i64 0, i32 2
  store i64 1, ptr %287, align 8
  %288 = getelementptr inbounds ptr, ptr %284, i64 2
  store ptr %287, ptr %288, align 8
  %289 = getelementptr inbounds %.25, ptr %283, i64 0, i32 3
  store ptr @main_kernel_2_main_kColReduction_reduce__6_1_0___no_ibXblock_tile_h64_1_kernel_name, ptr %289, align 8
  %290 = getelementptr inbounds ptr, ptr %284, i64 3
  store ptr %289, ptr %290, align 8
  %291 = getelementptr inbounds %.25, ptr %283, i64 0, i32 4
  store i64 %269, ptr %291, align 8
  %292 = getelementptr inbounds ptr, ptr %284, i64 4
  store ptr %291, ptr %292, align 8
  %293 = getelementptr inbounds %.25, ptr %283, i64 0, i32 5
  store i64 1, ptr %293, align 8
  %294 = getelementptr inbounds ptr, ptr %284, i64 5
  store ptr %293, ptr %294, align 8
  %295 = getelementptr inbounds %.25, ptr %283, i64 0, i32 6
  store i64 1, ptr %295, align 8
  %296 = getelementptr inbounds ptr, ptr %284, i64 6
  store ptr %295, ptr %296, align 8
  %297 = getelementptr inbounds %.25, ptr %283, i64 0, i32 7
  store i64 256, ptr %297, align 8
  %298 = getelementptr inbounds ptr, ptr %284, i64 7
  store ptr %297, ptr %298, align 8
  %299 = getelementptr inbounds %.25, ptr %283, i64 0, i32 8
  store i64 1, ptr %299, align 8
  %300 = getelementptr inbounds ptr, ptr %284, i64 8
  store ptr %299, ptr %300, align 8
  %301 = getelementptr inbounds %.25, ptr %283, i64 0, i32 9
  store i64 1, ptr %301, align 8
  %302 = getelementptr inbounds ptr, ptr %284, i64 9
  store ptr %301, ptr %302, align 8
  %303 = getelementptr inbounds %.25, ptr %283, i64 0, i32 10
  store i32 0, ptr %303, align 8
  %304 = getelementptr inbounds ptr, ptr %284, i64 10
  store ptr %303, ptr %304, align 8
  %305 = getelementptr inbounds %.25, ptr %283, i64 0, i32 11
  store ptr null, ptr %305, align 8
  %306 = getelementptr inbounds ptr, ptr %284, i64 11
  store ptr %305, ptr %306, align 8
  %307 = getelementptr inbounds %.25, ptr %283, i64 0, i32 12
  store i32 6, ptr %307, align 8
  %308 = getelementptr inbounds ptr, ptr %284, i64 12
  store ptr %307, ptr %308, align 8
  %309 = getelementptr inbounds %.25, ptr %283, i64 0, i32 13
  store ptr %272, ptr %309, align 8
  %310 = getelementptr inbounds ptr, ptr %284, i64 13
  store ptr %309, ptr %310, align 8
  %311 = load ptr, ptr %0, align 8
  %312 = load ptr, ptr %9, align 8
  store ptr %311, ptr %283, align 8
  call void %312(ptr %311, ptr nonnull @ral_kernel_launch___gpu___pvoid_ppvoid_i64_pvoid_i64_i64_i64_i64_i64_i64_i32_pvoid_i32_ppvoid___void, ptr nonnull %284)
  br label %498

313:                                              ; preds = %1
  br i1 %134, label %314, label %410

314:                                              ; preds = %313
  store ptr @main_kernel_3_blob_gpu.binary, ptr %135, align 8
  %315 = alloca %.26, align 8
  %316 = alloca [2 x ptr], align 8
  store i64 512, ptr %315, align 8
  store ptr %315, ptr %316, align 8
  %317 = getelementptr inbounds %.26, ptr %315, i64 0, i32 1
  store ptr %133, ptr %317, align 8
  %318 = getelementptr inbounds ptr, ptr %316, i64 1
  store ptr %317, ptr %318, align 8
  %319 = alloca %.27, align 8
  %320 = alloca [14 x ptr], align 8
  store ptr %319, ptr %320, align 8
  %321 = getelementptr inbounds %.27, ptr %319, i64 0, i32 1
  store ptr %135, ptr %321, align 8
  %322 = getelementptr inbounds ptr, ptr %320, i64 1
  store ptr %321, ptr %322, align 8
  %323 = getelementptr inbounds %.27, ptr %319, i64 0, i32 2
  store i64 1, ptr %323, align 8
  %324 = getelementptr inbounds ptr, ptr %320, i64 2
  store ptr %323, ptr %324, align 8
  %325 = getelementptr inbounds %.27, ptr %319, i64 0, i32 3
  store ptr @main_kernel_3_main_kColReduction_reduce__6_1_0___thread_tile_h32_kernel_name, ptr %325, align 8
  %326 = getelementptr inbounds ptr, ptr %320, i64 3
  store ptr %325, ptr %326, align 8
  %327 = getelementptr inbounds %.27, ptr %319, i64 0, i32 4
  store i64 1, ptr %327, align 8
  %328 = getelementptr inbounds ptr, ptr %320, i64 4
  store ptr %327, ptr %328, align 8
  %329 = getelementptr inbounds %.27, ptr %319, i64 0, i32 5
  store i64 1, ptr %329, align 8
  %330 = getelementptr inbounds ptr, ptr %320, i64 5
  store ptr %329, ptr %330, align 8
  %331 = getelementptr inbounds %.27, ptr %319, i64 0, i32 6
  store i64 1, ptr %331, align 8
  %332 = getelementptr inbounds ptr, ptr %320, i64 6
  store ptr %331, ptr %332, align 8
  %333 = getelementptr inbounds %.27, ptr %319, i64 0, i32 7
  store i64 512, ptr %333, align 8
  %334 = getelementptr inbounds ptr, ptr %320, i64 7
  store ptr %333, ptr %334, align 8
  %335 = getelementptr inbounds %.27, ptr %319, i64 0, i32 8
  store i64 1, ptr %335, align 8
  %336 = getelementptr inbounds ptr, ptr %320, i64 8
  store ptr %335, ptr %336, align 8
  %337 = getelementptr inbounds %.27, ptr %319, i64 0, i32 9
  store i64 1, ptr %337, align 8
  %338 = getelementptr inbounds ptr, ptr %320, i64 9
  store ptr %337, ptr %338, align 8
  %339 = getelementptr inbounds %.27, ptr %319, i64 0, i32 10
  store i32 0, ptr %339, align 8
  %340 = getelementptr inbounds ptr, ptr %320, i64 10
  store ptr %339, ptr %340, align 8
  %341 = getelementptr inbounds %.27, ptr %319, i64 0, i32 11
  store ptr null, ptr %341, align 8
  %342 = getelementptr inbounds ptr, ptr %320, i64 11
  store ptr %341, ptr %342, align 8
  %343 = getelementptr inbounds %.27, ptr %319, i64 0, i32 12
  store i32 2, ptr %343, align 8
  %344 = getelementptr inbounds ptr, ptr %320, i64 12
  store ptr %343, ptr %344, align 8
  %345 = getelementptr inbounds %.27, ptr %319, i64 0, i32 13
  store ptr %316, ptr %345, align 8
  %346 = getelementptr inbounds ptr, ptr %320, i64 13
  store ptr %345, ptr %346, align 8
  %347 = load ptr, ptr %0, align 8
  %348 = load ptr, ptr %9, align 8
  store ptr %347, ptr %319, align 8
  call void %348(ptr %347, ptr nonnull @ral_kernel_launch___gpu___pvoid_ppvoid_i64_pvoid_i64_i64_i64_i64_i64_i64_i32_pvoid_i32_ppvoid___void, ptr nonnull %320)
  %349 = icmp eq i32 %120, 0
  %350 = shl nsw i64 %121, 4
  %351 = add nsw i64 %350, -16
  %352 = and i64 %351, -512
  %353 = add nsw i64 %352, 512
  %354 = select i1 %349, i64 0, i64 %353
  %355 = icmp slt i64 %354, 1
  %356 = sub nsw i64 0, %354
  %357 = add nsw i64 %354, -1
  %358 = select i1 %355, i64 %356, i64 %357
  %359 = sdiv i64 %358, 512
  %360 = sub nsw i64 0, %359
  %361 = add nsw i64 %359, 1
  %362 = select i1 %355, i64 %360, i64 %361
  %363 = alloca ptr, align 8
  store ptr @main_kernel_4_blob_gpu.binary, ptr %363, align 8
  %364 = alloca %.28, align 8
  %365 = alloca [8 x ptr], align 8
  store i64 %.fca.3.0.load, ptr %364, align 8
  store ptr %364, ptr %365, align 8
  %366 = getelementptr inbounds %.28, ptr %364, i64 0, i32 1
  store i64 %.fca.3.0.load11, ptr %366, align 8
  %367 = getelementptr inbounds ptr, ptr %365, i64 1
  store ptr %366, ptr %367, align 8
  %368 = getelementptr inbounds %.28, ptr %364, i64 0, i32 2
  store i64 512, ptr %368, align 8
  %369 = getelementptr inbounds ptr, ptr %365, i64 2
  store ptr %368, ptr %369, align 8
  %370 = getelementptr inbounds %.28, ptr %364, i64 0, i32 3
  store i64 %354, ptr %370, align 8
  %371 = getelementptr inbounds ptr, ptr %365, i64 3
  store ptr %370, ptr %371, align 8
  %372 = getelementptr inbounds %.28, ptr %364, i64 0, i32 4
  store i64 %121, ptr %372, align 8
  %373 = getelementptr inbounds ptr, ptr %365, i64 4
  store ptr %372, ptr %373, align 8
  %374 = getelementptr inbounds %.28, ptr %364, i64 0, i32 5
  store ptr %29, ptr %374, align 8
  %375 = getelementptr inbounds ptr, ptr %365, i64 5
  store ptr %374, ptr %375, align 8
  %376 = getelementptr inbounds %.28, ptr %364, i64 0, i32 6
  store ptr %78, ptr %376, align 8
  %377 = getelementptr inbounds ptr, ptr %365, i64 6
  store ptr %376, ptr %377, align 8
  %378 = getelementptr inbounds %.28, ptr %364, i64 0, i32 7
  store ptr %133, ptr %378, align 8
  %379 = getelementptr inbounds ptr, ptr %365, i64 7
  store ptr %378, ptr %379, align 8
  %380 = alloca %.29, align 8
  %381 = alloca [14 x ptr], align 8
  store ptr %380, ptr %381, align 8
  %382 = getelementptr inbounds %.29, ptr %380, i64 0, i32 1
  store ptr %363, ptr %382, align 8
  %383 = getelementptr inbounds ptr, ptr %381, i64 1
  store ptr %382, ptr %383, align 8
  %384 = getelementptr inbounds %.29, ptr %380, i64 0, i32 2
  store i64 1, ptr %384, align 8
  %385 = getelementptr inbounds ptr, ptr %381, i64 2
  store ptr %384, ptr %385, align 8
  %386 = getelementptr inbounds %.29, ptr %380, i64 0, i32 3
  store ptr @main_kernel_4_main_kColReduction_reduce__6_1_0___thread_tile_h32_1_kernel_name, ptr %386, align 8
  %387 = getelementptr inbounds ptr, ptr %381, i64 3
  store ptr %386, ptr %387, align 8
  %388 = getelementptr inbounds %.29, ptr %380, i64 0, i32 4
  store i64 %362, ptr %388, align 8
  %389 = getelementptr inbounds ptr, ptr %381, i64 4
  store ptr %388, ptr %389, align 8
  %390 = getelementptr inbounds %.29, ptr %380, i64 0, i32 5
  store i64 1, ptr %390, align 8
  %391 = getelementptr inbounds ptr, ptr %381, i64 5
  store ptr %390, ptr %391, align 8
  %392 = getelementptr inbounds %.29, ptr %380, i64 0, i32 6
  store i64 1, ptr %392, align 8
  %393 = getelementptr inbounds ptr, ptr %381, i64 6
  store ptr %392, ptr %393, align 8
  %394 = getelementptr inbounds %.29, ptr %380, i64 0, i32 7
  store i64 512, ptr %394, align 8
  %395 = getelementptr inbounds ptr, ptr %381, i64 7
  store ptr %394, ptr %395, align 8
  %396 = getelementptr inbounds %.29, ptr %380, i64 0, i32 8
  store i64 1, ptr %396, align 8
  %397 = getelementptr inbounds ptr, ptr %381, i64 8
  store ptr %396, ptr %397, align 8
  %398 = getelementptr inbounds %.29, ptr %380, i64 0, i32 9
  store i64 1, ptr %398, align 8
  %399 = getelementptr inbounds ptr, ptr %381, i64 9
  store ptr %398, ptr %399, align 8
  %400 = getelementptr inbounds %.29, ptr %380, i64 0, i32 10
  store i32 0, ptr %400, align 8
  %401 = getelementptr inbounds ptr, ptr %381, i64 10
  store ptr %400, ptr %401, align 8
  %402 = getelementptr inbounds %.29, ptr %380, i64 0, i32 11
  store ptr null, ptr %402, align 8
  %403 = getelementptr inbounds ptr, ptr %381, i64 11
  store ptr %402, ptr %403, align 8
  %404 = getelementptr inbounds %.29, ptr %380, i64 0, i32 12
  store i32 8, ptr %404, align 8
  %405 = getelementptr inbounds ptr, ptr %381, i64 12
  store ptr %404, ptr %405, align 8
  %406 = getelementptr inbounds %.29, ptr %380, i64 0, i32 13
  store ptr %365, ptr %406, align 8
  %407 = getelementptr inbounds ptr, ptr %381, i64 13
  store ptr %406, ptr %407, align 8
  %408 = load ptr, ptr %0, align 8
  %409 = load ptr, ptr %9, align 8
  store ptr %408, ptr %380, align 8
  call void %409(ptr %408, ptr nonnull @ral_kernel_launch___gpu___pvoid_ppvoid_i64_pvoid_i64_i64_i64_i64_i64_i64_i32_pvoid_i32_ppvoid___void, ptr nonnull %381)
  br label %498

410:                                              ; preds = %313
  store ptr @main_kernel_5_blob_gpu.binary, ptr %135, align 8
  %411 = alloca %.30, align 8
  %412 = alloca [2 x ptr], align 8
  store i64 256, ptr %411, align 8
  store ptr %411, ptr %412, align 8
  %413 = getelementptr inbounds %.30, ptr %411, i64 0, i32 1
  store ptr %133, ptr %413, align 8
  %414 = getelementptr inbounds ptr, ptr %412, i64 1
  store ptr %413, ptr %414, align 8
  %415 = alloca %.31, align 8
  %416 = alloca [14 x ptr], align 8
  store ptr %415, ptr %416, align 8
  %417 = getelementptr inbounds %.31, ptr %415, i64 0, i32 1
  store ptr %135, ptr %417, align 8
  %418 = getelementptr inbounds ptr, ptr %416, i64 1
  store ptr %417, ptr %418, align 8
  %419 = getelementptr inbounds %.31, ptr %415, i64 0, i32 2
  store i64 1, ptr %419, align 8
  %420 = getelementptr inbounds ptr, ptr %416, i64 2
  store ptr %419, ptr %420, align 8
  %421 = getelementptr inbounds %.31, ptr %415, i64 0, i32 3
  store ptr @main_kernel_5_main_kColReduction_reduce__6_1_0___block_tile_h64_kernel_name, ptr %421, align 8
  %422 = getelementptr inbounds ptr, ptr %416, i64 3
  store ptr %421, ptr %422, align 8
  %423 = getelementptr inbounds %.31, ptr %415, i64 0, i32 4
  store i64 1, ptr %423, align 8
  %424 = getelementptr inbounds ptr, ptr %416, i64 4
  store ptr %423, ptr %424, align 8
  %425 = getelementptr inbounds %.31, ptr %415, i64 0, i32 5
  store i64 1, ptr %425, align 8
  %426 = getelementptr inbounds ptr, ptr %416, i64 5
  store ptr %425, ptr %426, align 8
  %427 = getelementptr inbounds %.31, ptr %415, i64 0, i32 6
  store i64 1, ptr %427, align 8
  %428 = getelementptr inbounds ptr, ptr %416, i64 6
  store ptr %427, ptr %428, align 8
  %429 = getelementptr inbounds %.31, ptr %415, i64 0, i32 7
  store i64 256, ptr %429, align 8
  %430 = getelementptr inbounds ptr, ptr %416, i64 7
  store ptr %429, ptr %430, align 8
  %431 = getelementptr inbounds %.31, ptr %415, i64 0, i32 8
  store i64 1, ptr %431, align 8
  %432 = getelementptr inbounds ptr, ptr %416, i64 8
  store ptr %431, ptr %432, align 8
  %433 = getelementptr inbounds %.31, ptr %415, i64 0, i32 9
  store i64 1, ptr %433, align 8
  %434 = getelementptr inbounds ptr, ptr %416, i64 9
  store ptr %433, ptr %434, align 8
  %435 = getelementptr inbounds %.31, ptr %415, i64 0, i32 10
  store i32 0, ptr %435, align 8
  %436 = getelementptr inbounds ptr, ptr %416, i64 10
  store ptr %435, ptr %436, align 8
  %437 = getelementptr inbounds %.31, ptr %415, i64 0, i32 11
  store ptr null, ptr %437, align 8
  %438 = getelementptr inbounds ptr, ptr %416, i64 11
  store ptr %437, ptr %438, align 8
  %439 = getelementptr inbounds %.31, ptr %415, i64 0, i32 12
  store i32 2, ptr %439, align 8
  %440 = getelementptr inbounds ptr, ptr %416, i64 12
  store ptr %439, ptr %440, align 8
  %441 = getelementptr inbounds %.31, ptr %415, i64 0, i32 13
  store ptr %412, ptr %441, align 8
  %442 = getelementptr inbounds ptr, ptr %416, i64 13
  store ptr %441, ptr %442, align 8
  %443 = load ptr, ptr %0, align 8
  %444 = load ptr, ptr %9, align 8
  store ptr %443, ptr %415, align 8
  call void %444(ptr %443, ptr nonnull @ral_kernel_launch___gpu___pvoid_ppvoid_i64_pvoid_i64_i64_i64_i64_i64_i64_i32_pvoid_i32_ppvoid___void, ptr nonnull %416)
  %445 = add nsw i64 %121, -1
  %446 = lshr i64 %445, 1
  %447 = and i64 %446, 9223372036854775552
  %448 = add nuw i64 %447, 256
  %449 = lshr i64 %445, 9
  %450 = add nuw nsw i64 %449, 1
  %451 = alloca ptr, align 8
  store ptr @main_kernel_6_blob_gpu.binary, ptr %451, align 8
  %452 = alloca %.32, align 8
  %453 = alloca [8 x ptr], align 8
  store i64 %.fca.3.0.load, ptr %452, align 8
  store ptr %452, ptr %453, align 8
  %454 = getelementptr inbounds %.32, ptr %452, i64 0, i32 1
  store i64 %.fca.3.0.load11, ptr %454, align 8
  %455 = getelementptr inbounds ptr, ptr %453, i64 1
  store ptr %454, ptr %455, align 8
  %456 = getelementptr inbounds %.32, ptr %452, i64 0, i32 2
  store i64 256, ptr %456, align 8
  %457 = getelementptr inbounds ptr, ptr %453, i64 2
  store ptr %456, ptr %457, align 8
  %458 = getelementptr inbounds %.32, ptr %452, i64 0, i32 3
  store i64 %448, ptr %458, align 8
  %459 = getelementptr inbounds ptr, ptr %453, i64 3
  store ptr %458, ptr %459, align 8
  %460 = getelementptr inbounds %.32, ptr %452, i64 0, i32 4
  store i64 %121, ptr %460, align 8
  %461 = getelementptr inbounds ptr, ptr %453, i64 4
  store ptr %460, ptr %461, align 8
  %462 = getelementptr inbounds %.32, ptr %452, i64 0, i32 5
  store ptr %29, ptr %462, align 8
  %463 = getelementptr inbounds ptr, ptr %453, i64 5
  store ptr %462, ptr %463, align 8
  %464 = getelementptr inbounds %.32, ptr %452, i64 0, i32 6
  store ptr %78, ptr %464, align 8
  %465 = getelementptr inbounds ptr, ptr %453, i64 6
  store ptr %464, ptr %465, align 8
  %466 = getelementptr inbounds %.32, ptr %452, i64 0, i32 7
  store ptr %133, ptr %466, align 8
  %467 = getelementptr inbounds ptr, ptr %453, i64 7
  store ptr %466, ptr %467, align 8
  %468 = alloca %.33, align 8
  %469 = alloca [14 x ptr], align 8
  store ptr %468, ptr %469, align 8
  %470 = getelementptr inbounds %.33, ptr %468, i64 0, i32 1
  store ptr %451, ptr %470, align 8
  %471 = getelementptr inbounds ptr, ptr %469, i64 1
  store ptr %470, ptr %471, align 8
  %472 = getelementptr inbounds %.33, ptr %468, i64 0, i32 2
  store i64 1, ptr %472, align 8
  %473 = getelementptr inbounds ptr, ptr %469, i64 2
  store ptr %472, ptr %473, align 8
  %474 = getelementptr inbounds %.33, ptr %468, i64 0, i32 3
  store ptr @main_kernel_6_main_kColReduction_reduce__6_1_0___block_tile_h64_1_kernel_name, ptr %474, align 8
  %475 = getelementptr inbounds ptr, ptr %469, i64 3
  store ptr %474, ptr %475, align 8
  %476 = getelementptr inbounds %.33, ptr %468, i64 0, i32 4
  store i64 %450, ptr %476, align 8
  %477 = getelementptr inbounds ptr, ptr %469, i64 4
  store ptr %476, ptr %477, align 8
  %478 = getelementptr inbounds %.33, ptr %468, i64 0, i32 5
  store i64 1, ptr %478, align 8
  %479 = getelementptr inbounds ptr, ptr %469, i64 5
  store ptr %478, ptr %479, align 8
  %480 = getelementptr inbounds %.33, ptr %468, i64 0, i32 6
  store i64 1, ptr %480, align 8
  %481 = getelementptr inbounds ptr, ptr %469, i64 6
  store ptr %480, ptr %481, align 8
  %482 = getelementptr inbounds %.33, ptr %468, i64 0, i32 7
  store i64 256, ptr %482, align 8
  %483 = getelementptr inbounds ptr, ptr %469, i64 7
  store ptr %482, ptr %483, align 8
  %484 = getelementptr inbounds %.33, ptr %468, i64 0, i32 8
  store i64 1, ptr %484, align 8
  %485 = getelementptr inbounds ptr, ptr %469, i64 8
  store ptr %484, ptr %485, align 8
  %486 = getelementptr inbounds %.33, ptr %468, i64 0, i32 9
  store i64 1, ptr %486, align 8
  %487 = getelementptr inbounds ptr, ptr %469, i64 9
  store ptr %486, ptr %487, align 8
  %488 = getelementptr inbounds %.33, ptr %468, i64 0, i32 10
  store i32 0, ptr %488, align 8
  %489 = getelementptr inbounds ptr, ptr %469, i64 10
  store ptr %488, ptr %489, align 8
  %490 = getelementptr inbounds %.33, ptr %468, i64 0, i32 11
  store ptr null, ptr %490, align 8
  %491 = getelementptr inbounds ptr, ptr %469, i64 11
  store ptr %490, ptr %491, align 8
  %492 = getelementptr inbounds %.33, ptr %468, i64 0, i32 12
  store i32 8, ptr %492, align 8
  %493 = getelementptr inbounds ptr, ptr %469, i64 12
  store ptr %492, ptr %493, align 8
  %494 = getelementptr inbounds %.33, ptr %468, i64 0, i32 13
  store ptr %453, ptr %494, align 8
  %495 = getelementptr inbounds ptr, ptr %469, i64 13
  store ptr %494, ptr %495, align 8
  %496 = load ptr, ptr %0, align 8
  %497 = load ptr, ptr %9, align 8
  store ptr %496, ptr %468, align 8
  call void %497(ptr %496, ptr nonnull @ral_kernel_launch___gpu___pvoid_ppvoid_i64_pvoid_i64_i64_i64_i64_i64_i64_i32_pvoid_i32_ppvoid___void, ptr nonnull %469)
  br label %498

498:                                              ; preds = %137, %229, %314, %410
  %499 = alloca %.13, align 8
  %500 = alloca [2 x ptr], align 8
  store ptr %499, ptr %500, align 8
  %501 = getelementptr inbounds %.13, ptr %499, i64 0, i32 1
  store ptr %78, ptr %501, align 8
  %502 = getelementptr inbounds ptr, ptr %500, i64 1
  store ptr %501, ptr %502, align 8
  %503 = load ptr, ptr %0, align 8
  %504 = load ptr, ptr %9, align 8
  store ptr %503, ptr %499, align 8
  call void %504(ptr %503, ptr nonnull @dealloc___gpu___pvoid_pvoid___void, ptr nonnull %500)
  %505 = alloca %.14, align 8
  %506 = alloca [2 x ptr], align 8
  store ptr %505, ptr %506, align 8
  %507 = getelementptr inbounds %.14, ptr %505, i64 0, i32 1
  store ptr %29, ptr %507, align 8
  %508 = getelementptr inbounds ptr, ptr %506, i64 1
  store ptr %507, ptr %508, align 8
  %509 = load ptr, ptr %0, align 8
  %510 = load ptr, ptr %9, align 8
  store ptr %509, ptr %505, align 8
  call void %510(ptr %509, ptr nonnull @dealloc___gpu___pvoid_pvoid___void, ptr nonnull %506)
  %511 = alloca i64, align 8
  %512 = alloca %.15, align 8
  %513 = alloca [13 x ptr], align 8
  store ptr %512, ptr %513, align 8
  %514 = getelementptr inbounds %.15, ptr %512, i64 0, i32 1
  store ptr null, ptr %514, align 8
  %515 = getelementptr inbounds ptr, ptr %513, i64 1
  store ptr %514, ptr %515, align 8
  %516 = getelementptr inbounds %.15, ptr %512, i64 0, i32 2
  store ptr %133, ptr %516, align 8
  %517 = getelementptr inbounds ptr, ptr %513, i64 2
  store ptr %516, ptr %517, align 8
  %518 = getelementptr inbounds %.15, ptr %512, i64 0, i32 3
  store ptr %133, ptr %518, align 8
  %519 = getelementptr inbounds ptr, ptr %513, i64 3
  store ptr %518, ptr %519, align 8
  %520 = getelementptr inbounds %.15, ptr %512, i64 0, i32 4
  store i64 0, ptr %520, align 8
  %521 = getelementptr inbounds ptr, ptr %513, i64 4
  store ptr %520, ptr %521, align 8
  %522 = getelementptr inbounds %.15, ptr %512, i64 0, i32 5
  store i64 1, ptr %522, align 8
  %523 = getelementptr inbounds ptr, ptr %513, i64 5
  store ptr %522, ptr %523, align 8
  %524 = getelementptr inbounds %.15, ptr %512, i64 0, i32 6
  store i64 1, ptr %524, align 8
  %525 = getelementptr inbounds ptr, ptr %513, i64 6
  store ptr %524, ptr %525, align 8
  %526 = getelementptr inbounds %.15, ptr %512, i64 0, i32 7
  store ptr %511, ptr %526, align 8
  %527 = getelementptr inbounds ptr, ptr %513, i64 7
  store ptr %526, ptr %527, align 8
  %528 = getelementptr inbounds %.15, ptr %512, i64 0, i32 8
  store ptr %511, ptr %528, align 8
  %529 = getelementptr inbounds ptr, ptr %513, i64 8
  store ptr %528, ptr %529, align 8
  %530 = getelementptr inbounds %.15, ptr %512, i64 0, i32 9
  store i64 0, ptr %530, align 8
  %531 = getelementptr inbounds ptr, ptr %513, i64 9
  store ptr %530, ptr %531, align 8
  %532 = getelementptr inbounds %.15, ptr %512, i64 0, i32 10
  store i64 0, ptr %532, align 8
  %533 = getelementptr inbounds ptr, ptr %513, i64 10
  store ptr %532, ptr %533, align 8
  %534 = getelementptr inbounds %.15, ptr %512, i64 0, i32 11
  store i64 1, ptr %534, align 8
  %535 = getelementptr inbounds ptr, ptr %513, i64 11
  store ptr %534, ptr %535, align 8
  %536 = getelementptr inbounds %.15, ptr %512, i64 0, i32 12
  %537 = getelementptr inbounds ptr, ptr %513, i64 12
  store ptr %536, ptr %537, align 8
  %538 = load ptr, ptr %0, align 8
  %539 = load ptr, ptr %9, align 8
  store ptr %538, ptr %512, align 8
  call void %539(ptr %538, ptr nonnull @inc_ref___gpu___pvoid_pvoid_m1df32_m1di64___m0df32, ptr nonnull %513)
  %.unpack = load ptr, ptr %536, align 8
  %.elt23 = getelementptr inbounds %.15, ptr %512, i64 0, i32 12, i32 1
  %.unpack24 = load ptr, ptr %.elt23, align 8
  %540 = alloca %.16, align 8
  %541 = alloca [2 x ptr], align 8
  store ptr %540, ptr %541, align 8
  %542 = getelementptr inbounds %.16, ptr %540, i64 0, i32 1
  store ptr %133, ptr %542, align 8
  %543 = getelementptr inbounds ptr, ptr %541, i64 1
  store ptr %542, ptr %543, align 8
  %544 = load ptr, ptr %0, align 8
  %545 = load ptr, ptr %9, align 8
  store ptr %544, ptr %540, align 8
  call void %545(ptr %544, ptr nonnull @dealloc___gpu___pvoid_pvoid___void, ptr nonnull %541)
  %546 = alloca %.17, align 8
  %547 = alloca [3 x ptr], align 8
  store ptr %546, ptr %547, align 8
  %548 = getelementptr inbounds %.17, ptr %546, i64 0, i32 1
  store i64 4, ptr %548, align 8
  %549 = getelementptr inbounds ptr, ptr %547, i64 1
  store ptr %548, ptr %549, align 8
  %550 = getelementptr inbounds %.17, ptr %546, i64 0, i32 2
  %551 = getelementptr inbounds ptr, ptr %547, i64 2
  store ptr %550, ptr %551, align 8
  %552 = load ptr, ptr %0, align 8
  %553 = load ptr, ptr %9, align 8
  store ptr %552, ptr %546, align 8
  call void %553(ptr %552, ptr nonnull @alloc___cpu___pvoid_i64___pvoid, ptr nonnull %547)
  %554 = load ptr, ptr %550, align 8
  %555 = alloca %.18, align 8
  %556 = alloca [8 x ptr], align 8
  store ptr %555, ptr %556, align 8
  %557 = getelementptr inbounds %.18, ptr %555, i64 0, i32 1
  store ptr null, ptr %557, align 8
  %558 = getelementptr inbounds ptr, ptr %556, i64 1
  store ptr %557, ptr %558, align 8
  %559 = getelementptr inbounds %.18, ptr %555, i64 0, i32 2
  store ptr %.unpack, ptr %559, align 8
  %560 = getelementptr inbounds ptr, ptr %556, i64 2
  store ptr %559, ptr %560, align 8
  %561 = getelementptr inbounds %.18, ptr %555, i64 0, i32 3
  store ptr %.unpack24, ptr %561, align 8
  %562 = getelementptr inbounds ptr, ptr %556, i64 3
  store ptr %561, ptr %562, align 8
  %563 = getelementptr inbounds %.18, ptr %555, i64 0, i32 4
  store i64 0, ptr %563, align 8
  %564 = getelementptr inbounds ptr, ptr %556, i64 4
  store ptr %563, ptr %564, align 8
  %565 = getelementptr inbounds %.18, ptr %555, i64 0, i32 5
  store ptr %554, ptr %565, align 8
  %566 = getelementptr inbounds ptr, ptr %556, i64 5
  store ptr %565, ptr %566, align 8
  %567 = getelementptr inbounds %.18, ptr %555, i64 0, i32 6
  store ptr %554, ptr %567, align 8
  %568 = getelementptr inbounds ptr, ptr %556, i64 6
  store ptr %567, ptr %568, align 8
  %569 = getelementptr inbounds %.18, ptr %555, i64 0, i32 7
  store i64 0, ptr %569, align 8
  %570 = getelementptr inbounds ptr, ptr %556, i64 7
  store ptr %569, ptr %570, align 8
  %571 = load ptr, ptr %0, align 8
  %572 = load ptr, ptr %9, align 8
  store ptr %571, ptr %555, align 8
  call void %572(ptr %571, ptr nonnull @d2h___gpu___pvoid_pvoid_m0df32_m0df32___void, ptr nonnull %556)
  %573 = alloca %.19, align 8
  %574 = alloca [2 x ptr], align 8
  store ptr %573, ptr %574, align 8
  %575 = getelementptr inbounds %.19, ptr %573, i64 0, i32 1
  store ptr null, ptr %575, align 8
  %576 = getelementptr inbounds ptr, ptr %574, i64 1
  store ptr %575, ptr %576, align 8
  %577 = load ptr, ptr %0, align 8
  %578 = load ptr, ptr %9, align 8
  store ptr %577, ptr %573, align 8
  call void %578(ptr %577, ptr nonnull @sync_on_stream___gpu___pvoid_pvoid___void, ptr nonnull %574)
  %579 = alloca %.20, align 8
  %580 = alloca [2 x ptr], align 8
  store ptr %579, ptr %580, align 8
  %581 = getelementptr inbounds %.20, ptr %579, i64 0, i32 1
  store ptr %.unpack, ptr %581, align 8
  %582 = getelementptr inbounds ptr, ptr %580, i64 1
  store ptr %581, ptr %582, align 8
  %583 = load ptr, ptr %0, align 8
  %584 = load ptr, ptr %9, align 8
  store ptr %583, ptr %579, align 8
  call void %584(ptr %583, ptr nonnull @dealloc___gpu___pvoid_pvoid___void, ptr nonnull %580)
  %585 = alloca %.21, align 8
  %586 = alloca [5 x ptr], align 8
  store ptr %585, ptr %586, align 8
  %587 = getelementptr inbounds %.21, ptr %585, i64 0, i32 1
  store i64 0, ptr %587, align 8
  %588 = getelementptr inbounds ptr, ptr %586, i64 1
  store ptr %587, ptr %588, align 8
  %589 = getelementptr inbounds %.21, ptr %585, i64 0, i32 2
  store ptr %554, ptr %589, align 8
  %590 = getelementptr inbounds ptr, ptr %586, i64 2
  store ptr %589, ptr %590, align 8
  %591 = getelementptr inbounds %.21, ptr %585, i64 0, i32 3
  store ptr %554, ptr %591, align 8
  %592 = getelementptr inbounds ptr, ptr %586, i64 3
  store ptr %591, ptr %592, align 8
  %593 = getelementptr inbounds %.21, ptr %585, i64 0, i32 4
  store i64 0, ptr %593, align 8
  %594 = getelementptr inbounds ptr, ptr %586, i64 4
  store ptr %593, ptr %594, align 8
  %595 = load ptr, ptr %0, align 8
  %596 = load ptr, ptr %9, align 8
  store ptr %595, ptr %585, align 8
  call void %596(ptr %595, ptr nonnull @ral_send_output___cpu___pvoid_i64_m0df32___void, ptr nonnull %586)
  ret void
}

[DISC] LowerLLVMToBinary takes: 7.463800e-02 s.
object file to shared library command: gcc --shared -o ./module.so ./module.so.o
save shared lib file to : ./module.so
[DISC] BinaryStrToSharedLibrary takes: 1.587000e-02 s.
[DISC] LowerHLOToSharedLibrary takes: 1.494193e+00 s.
